node {
  name: "input_7"
  op: "Placeholder"
  attr {
    key: "dtype"
    value {
      type: DT_FLOAT
    }
  }
  attr {
    key: "shape"
    value {
      shape {
        dim {
          size: -1
        }
        dim {
          size: 128
        }
        dim {
          size: 128
        }
        dim {
          size: 3
        }
      }
    }
  }
}
node {
  name: "lambda_6/truediv/y"
  op: "Const"
  attr {
    key: "dtype"
    value {
      type: DT_FLOAT
    }
  }
  attr {
    key: "value"
    value {
      tensor {
        dtype: DT_FLOAT
        tensor_shape {
        }
        float_val: 255.0
      }
    }
  }
}
node {
  name: "lambda_6/truediv"
  op: "RealDiv"
  input: "input_7"
  input: "lambda_6/truediv/y"
  attr {
    key: "T"
    value {
      type: DT_FLOAT
    }
  }
}
node {
  name: "conv2d_90/kernel/Initializer/random_uniform/shape"
  op: "Const"
  attr {
    key: "_class"
    value {
      list {
        s: "loc:@conv2d_90/kernel"
      }
    }
  }
  attr {
    key: "dtype"
    value {
      type: DT_INT32
    }
  }
  attr {
    key: "value"
    value {
      tensor {
        dtype: DT_INT32
        tensor_shape {
          dim {
            size: 4
          }
        }
        tensor_content: "\007\000\000\000\007\000\000\000\003\000\000\000@\000\000\000"
      }
    }
  }
}
node {
  name: "conv2d_90/kernel/Initializer/random_uniform/min"
  op: "Const"
  attr {
    key: "_class"
    value {
      list {
        s: "loc:@conv2d_90/kernel"
      }
    }
  }
  attr {
    key: "dtype"
    value {
      type: DT_FLOAT
    }
  }
  attr {
    key: "value"
    value {
      tensor {
        dtype: DT_FLOAT
        tensor_shape {
        }
        float_val: -0.04275039955973625
      }
    }
  }
}
node {
  name: "conv2d_90/kernel/Initializer/random_uniform/max"
  op: "Const"
  attr {
    key: "_class"
    value {
      list {
        s: "loc:@conv2d_90/kernel"
      }
    }
  }
  attr {
    key: "dtype"
    value {
      type: DT_FLOAT
    }
  }
  attr {
    key: "value"
    value {
      tensor {
        dtype: DT_FLOAT
        tensor_shape {
        }
        float_val: 0.04275039955973625
      }
    }
  }
}
node {
  name: "conv2d_90/kernel/Initializer/random_uniform/RandomUniform"
  op: "RandomUniform"
  input: "conv2d_90/kernel/Initializer/random_uniform/shape"
  attr {
    key: "T"
    value {
      type: DT_INT32
    }
  }
  attr {
    key: "_class"
    value {
      list {
        s: "loc:@conv2d_90/kernel"
      }
    }
  }
  attr {
    key: "dtype"
    value {
      type: DT_FLOAT
    }
  }
  attr {
    key: "seed"
    value {
      i: 0
    }
  }
  attr {
    key: "seed2"
    value {
      i: 0
    }
  }
}
node {
  name: "conv2d_90/kernel/Initializer/random_uniform/sub"
  op: "Sub"
  input: "conv2d_90/kernel/Initializer/random_uniform/max"
  input: "conv2d_90/kernel/Initializer/random_uniform/min"
  attr {
    key: "T"
    value {
      type: DT_FLOAT
    }
  }
  attr {
    key: "_class"
    value {
      list {
        s: "loc:@conv2d_90/kernel"
      }
    }
  }
}
node {
  name: "conv2d_90/kernel/Initializer/random_uniform/mul"
  op: "Mul"
  input: "conv2d_90/kernel/Initializer/random_uniform/RandomUniform"
  input: "conv2d_90/kernel/Initializer/random_uniform/sub"
  attr {
    key: "T"
    value {
      type: DT_FLOAT
    }
  }
  attr {
    key: "_class"
    value {
      list {
        s: "loc:@conv2d_90/kernel"
      }
    }
  }
}
node {
  name: "conv2d_90/kernel/Initializer/random_uniform"
  op: "Add"
  input: "conv2d_90/kernel/Initializer/random_uniform/mul"
  input: "conv2d_90/kernel/Initializer/random_uniform/min"
  attr {
    key: "T"
    value {
      type: DT_FLOAT
    }
  }
  attr {
    key: "_class"
    value {
      list {
        s: "loc:@conv2d_90/kernel"
      }
    }
  }
}
node {
  name: "conv2d_90/kernel"
  op: "VarHandleOp"
  attr {
    key: "_class"
    value {
      list {
        s: "loc:@conv2d_90/kernel"
      }
    }
  }
  attr {
    key: "container"
    value {
      s: ""
    }
  }
  attr {
    key: "dtype"
    value {
      type: DT_FLOAT
    }
  }
  attr {
    key: "shape"
    value {
      shape {
        dim {
          size: 7
        }
        dim {
          size: 7
        }
        dim {
          size: 3
        }
        dim {
          size: 64
        }
      }
    }
  }
  attr {
    key: "shared_name"
    value {
      s: "conv2d_90/kernel"
    }
  }
}
node {
  name: "conv2d_90/kernel/IsInitialized/VarIsInitializedOp"
  op: "VarIsInitializedOp"
  input: "conv2d_90/kernel"
}
node {
  name: "conv2d_90/kernel/Assign"
  op: "AssignVariableOp"
  input: "conv2d_90/kernel"
  input: "conv2d_90/kernel/Initializer/random_uniform"
  attr {
    key: "dtype"
    value {
      type: DT_FLOAT
    }
  }
}
node {
  name: "conv2d_90/kernel/Read/ReadVariableOp"
  op: "ReadVariableOp"
  input: "conv2d_90/kernel"
  attr {
    key: "dtype"
    value {
      type: DT_FLOAT
    }
  }
}
node {
  name: "conv2d_90/bias/Initializer/zeros"
  op: "Const"
  attr {
    key: "_class"
    value {
      list {
        s: "loc:@conv2d_90/bias"
      }
    }
  }
  attr {
    key: "dtype"
    value {
      type: DT_FLOAT
    }
  }
  attr {
    key: "value"
    value {
      tensor {
        dtype: DT_FLOAT
        tensor_shape {
          dim {
            size: 64
          }
        }
        float_val: 0.0
      }
    }
  }
}
node {
  name: "conv2d_90/bias"
  op: "VarHandleOp"
  attr {
    key: "_class"
    value {
      list {
        s: "loc:@conv2d_90/bias"
      }
    }
  }
  attr {
    key: "container"
    value {
      s: ""
    }
  }
  attr {
    key: "dtype"
    value {
      type: DT_FLOAT
    }
  }
  attr {
    key: "shape"
    value {
      shape {
        dim {
          size: 64
        }
      }
    }
  }
  attr {
    key: "shared_name"
    value {
      s: "conv2d_90/bias"
    }
  }
}
node {
  name: "conv2d_90/bias/IsInitialized/VarIsInitializedOp"
  op: "VarIsInitializedOp"
  input: "conv2d_90/bias"
}
node {
  name: "conv2d_90/bias/Assign"
  op: "AssignVariableOp"
  input: "conv2d_90/bias"
  input: "conv2d_90/bias/Initializer/zeros"
  attr {
    key: "dtype"
    value {
      type: DT_FLOAT
    }
  }
}
node {
  name: "conv2d_90/bias/Read/ReadVariableOp"
  op: "ReadVariableOp"
  input: "conv2d_90/bias"
  attr {
    key: "dtype"
    value {
      type: DT_FLOAT
    }
  }
}
node {
  name: "conv2d_90/dilation_rate"
  op: "Const"
  attr {
    key: "dtype"
    value {
      type: DT_INT32
    }
  }
  attr {
    key: "value"
    value {
      tensor {
        dtype: DT_INT32
        tensor_shape {
          dim {
            size: 2
          }
        }
        tensor_content: "\001\000\000\000\001\000\000\000"
      }
    }
  }
}
node {
  name: "conv2d_90/Conv2D/ReadVariableOp"
  op: "ReadVariableOp"
  input: "conv2d_90/kernel"
  attr {
    key: "dtype"
    value {
      type: DT_FLOAT
    }
  }
}
node {
  name: "conv2d_90/Conv2D"
  op: "Conv2D"
  input: "lambda_6/truediv"
  input: "conv2d_90/Conv2D/ReadVariableOp"
  attr {
    key: "T"
    value {
      type: DT_FLOAT
    }
  }
  attr {
    key: "data_format"
    value {
      s: "NHWC"
    }
  }
  attr {
    key: "dilations"
    value {
      list {
        i: 1
        i: 1
        i: 1
        i: 1
      }
    }
  }
  attr {
    key: "explicit_paddings"
    value {
      list {
      }
    }
  }
  attr {
    key: "padding"
    value {
      s: "SAME"
    }
  }
  attr {
    key: "strides"
    value {
      list {
        i: 1
        i: 2
        i: 2
        i: 1
      }
    }
  }
  attr {
    key: "use_cudnn_on_gpu"
    value {
      b: true
    }
  }
}
node {
  name: "conv2d_90/BiasAdd/ReadVariableOp"
  op: "ReadVariableOp"
  input: "conv2d_90/bias"
  attr {
    key: "dtype"
    value {
      type: DT_FLOAT
    }
  }
}
node {
  name: "conv2d_90/BiasAdd"
  op: "BiasAdd"
  input: "conv2d_90/Conv2D"
  input: "conv2d_90/BiasAdd/ReadVariableOp"
  attr {
    key: "T"
    value {
      type: DT_FLOAT
    }
  }
  attr {
    key: "data_format"
    value {
      s: "NHWC"
    }
  }
}
node {
  name: "conv2d_90/Relu"
  op: "Relu"
  input: "conv2d_90/BiasAdd"
  attr {
    key: "T"
    value {
      type: DT_FLOAT
    }
  }
}
node {
  name: "zero_padding2d_24/Pad/paddings"
  op: "Const"
  attr {
    key: "dtype"
    value {
      type: DT_INT32
    }
  }
  attr {
    key: "value"
    value {
      tensor {
        dtype: DT_INT32
        tensor_shape {
          dim {
            size: 4
          }
          dim {
            size: 2
          }
        }
        tensor_content: "…"
      }
    }
  }
}
node {
  name: "zero_padding2d_24/Pad"
  op: "Pad"
  input: "conv2d_90/Relu"
  input: "zero_padding2d_24/Pad/paddings"
  attr {
    key: "T"
    value {
      type: DT_FLOAT
    }
  }
  attr {
    key: "Tpaddings"
    value {
      type: DT_INT32
    }
  }
}
node {
  name: "max_pooling2d_36/MaxPool"
  op: "MaxPool"
  input: "zero_padding2d_24/Pad"
  attr {
    key: "T"
    value {
      type: DT_FLOAT
    }
  }
  attr {
    key: "data_format"
    value {
      s: "NHWC"
    }
  }
  attr {
    key: "ksize"
    value {
      list {
        i: 1
        i: 3
        i: 3
        i: 1
      }
    }
  }
  attr {
    key: "padding"
    value {
      s: "VALID"
    }
  }
  attr {
    key: "strides"
    value {
      list {
        i: 1
        i: 2
        i: 2
        i: 1
      }
    }
  }
}
node {
  name: "conv2d_91/kernel/Initializer/random_uniform/shape"
  op: "Const"
  attr {
    key: "_class"
    value {
      list {
        s: "loc:@conv2d_91/kernel"
      }
    }
  }
  attr {
    key: "dtype"
    value {
      type: DT_INT32
    }
  }
  attr {
    key: "value"
    value {
      tensor {
        dtype: DT_INT32
        tensor_shape {
          dim {
            size: 4
          }
        }
        tensor_content: "\001\000\000\000\001\000\000\000@\000\000\000@\000\000\000"
      }
    }
  }
}
node {
  name: "conv2d_91/kernel/Initializer/random_uniform/min"
  op: "Const"
  attr {
    key: "_class"
    value {
      list {
        s: "loc:@conv2d_91/kernel"
      }
    }
  }
  attr {
    key: "dtype"
    value {
      type: DT_FLOAT
    }
  }
  attr {
    key: "value"
    value {
      tensor {
        dtype: DT_FLOAT
        tensor_shape {
        }
        float_val: -0.21650634706020355
      }
    }
  }
}
node {
  name: "conv2d_91/kernel/Initializer/random_uniform/max"
  op: "Const"
  attr {
    key: "_class"
    value {
      list {
        s: "loc:@conv2d_91/kernel"
      }
    }
  }
  attr {
    key: "dtype"
    value {
      type: DT_FLOAT
    }
  }
  attr {
    key: "value"
    value {
      tensor {
        dtype: DT_FLOAT
        tensor_shape {
        }
        float_val: 0.21650634706020355
      }
    }
  }
}
node {
  name: "conv2d_91/kernel/Initializer/random_uniform/RandomUniform"
  op: "RandomUniform"
  input: "conv2d_91/kernel/Initializer/random_uniform/shape"
  attr {
    key: "T"
    value {
      type: DT_INT32
    }
  }
  attr {
    key: "_class"
    value {
      list {
        s: "loc:@conv2d_91/kernel"
      }
    }
  }
  attr {
    key: "dtype"
    value {
      type: DT_FLOAT
    }
  }
  attr {
    key: "seed"
    value {
      i: 0
    }
  }
  attr {
    key: "seed2"
    value {
      i: 0
    }
  }
}
node {
  name: "conv2d_91/kernel/Initializer/random_uniform/sub"
  op: "Sub"
  input: "conv2d_91/kernel/Initializer/random_uniform/max"
  input: "conv2d_91/kernel/Initializer/random_uniform/min"
  attr {
    key: "T"
    value {
      type: DT_FLOAT
    }
  }
  attr {
    key: "_class"
    value {
      list {
        s: "loc:@conv2d_91/kernel"
      }
    }
  }
}
node {
  name: "conv2d_91/kernel/Initializer/random_uniform/mul"
  op: "Mul"
  input: "conv2d_91/kernel/Initializer/random_uniform/RandomUniform"
  input: "conv2d_91/kernel/Initializer/random_uniform/sub"
  attr {
    key: "T"
    value {
      type: DT_FLOAT
    }
  }
  attr {
    key: "_class"
    value {
      list {
        s: "loc:@conv2d_91/kernel"
      }
    }
  }
}
node {
  name: "conv2d_91/kernel/Initializer/random_uniform"
  op: "Add"
  input: "conv2d_91/kernel/Initializer/random_uniform/mul"
  input: "conv2d_91/kernel/Initializer/random_uniform/min"
  attr {
    key: "T"
    value {
      type: DT_FLOAT
    }
  }
  attr {
    key: "_class"
    value {
      list {
        s: "loc:@conv2d_91/kernel"
      }
    }
  }
}
node {
  name: "conv2d_91/kernel"
  op: "VarHandleOp"
  attr {
    key: "_class"
    value {
      list {
        s: "loc:@conv2d_91/kernel"
      }
    }
  }
  attr {
    key: "container"
    value {
      s: ""
    }
  }
  attr {
    key: "dtype"
    value {
      type: DT_FLOAT
    }
  }
  attr {
    key: "shape"
    value {
      shape {
        dim {
          size: 1
        }
        dim {
          size: 1
        }
        dim {
          size: 64
        }
        dim {
          size: 64
        }
      }
    }
  }
  attr {
    key: "shared_name"
    value {
      s: "conv2d_91/kernel"
    }
  }
}
node {
  name: "conv2d_91/kernel/IsInitialized/VarIsInitializedOp"
  op: "VarIsInitializedOp"
  input: "conv2d_91/kernel"
}
node {
  name: "conv2d_91/kernel/Assign"
  op: "AssignVariableOp"
  input: "conv2d_91/kernel"
  input: "conv2d_91/kernel/Initializer/random_uniform"
  attr {
    key: "dtype"
    value {
      type: DT_FLOAT
    }
  }
}
node {
  name: "conv2d_91/kernel/Read/ReadVariableOp"
  op: "ReadVariableOp"
  input: "conv2d_91/kernel"
  attr {
    key: "dtype"
    value {
      type: DT_FLOAT
    }
  }
}
node {
  name: "conv2d_91/bias/Initializer/zeros"
  op: "Const"
  attr {
    key: "_class"
    value {
      list {
        s: "loc:@conv2d_91/bias"
      }
    }
  }
  attr {
    key: "dtype"
    value {
      type: DT_FLOAT
    }
  }
  attr {
    key: "value"
    value {
      tensor {
        dtype: DT_FLOAT
        tensor_shape {
          dim {
            size: 64
          }
        }
        float_val: 0.0
      }
    }
  }
}
node {
  name: "conv2d_91/bias"
  op: "VarHandleOp"
  attr {
    key: "_class"
    value {
      list {
        s: "loc:@conv2d_91/bias"
      }
    }
  }
  attr {
    key: "container"
    value {
      s: ""
    }
  }
  attr {
    key: "dtype"
    value {
      type: DT_FLOAT
    }
  }
  attr {
    key: "shape"
    value {
      shape {
        dim {
          size: 64
        }
      }
    }
  }
  attr {
    key: "shared_name"
    value {
      s: "conv2d_91/bias"
    }
  }
}
node {
  name: "conv2d_91/bias/IsInitialized/VarIsInitializedOp"
  op: "VarIsInitializedOp"
  input: "conv2d_91/bias"
}
node {
  name: "conv2d_91/bias/Assign"
  op: "AssignVariableOp"
  input: "conv2d_91/bias"
  input: "conv2d_91/bias/Initializer/zeros"
  attr {
    key: "dtype"
    value {
      type: DT_FLOAT
    }
  }
}
node {
  name: "conv2d_91/bias/Read/ReadVariableOp"
  op: "ReadVariableOp"
  input: "conv2d_91/bias"
  attr {
    key: "dtype"
    value {
      type: DT_FLOAT
    }
  }
}
node {
  name: "conv2d_91/dilation_rate"
  op: "Const"
  attr {
    key: "dtype"
    value {
      type: DT_INT32
    }
  }
  attr {
    key: "value"
    value {
      tensor {
        dtype: DT_INT32
        tensor_shape {
          dim {
            size: 2
          }
        }
        tensor_content: "\001\000\000\000\001\000\000\000"
      }
    }
  }
}
node {
  name: "conv2d_91/Conv2D/ReadVariableOp"
  op: "ReadVariableOp"
  input: "conv2d_91/kernel"
  attr {
    key: "dtype"
    value {
      type: DT_FLOAT
    }
  }
}
node {
  name: "conv2d_91/Conv2D"
  op: "Conv2D"
  input: "max_pooling2d_36/MaxPool"
  input: "conv2d_91/Conv2D/ReadVariableOp"
  attr {
    key: "T"
    value {
      type: DT_FLOAT
    }
  }
  attr {
    key: "data_format"
    value {
      s: "NHWC"
    }
  }
  attr {
    key: "dilations"
    value {
      list {
        i: 1
        i: 1
        i: 1
        i: 1
      }
    }
  }
  attr {
    key: "explicit_paddings"
    value {
      list {
      }
    }
  }
  attr {
    key: "padding"
    value {
      s: "VALID"
    }
  }
  attr {
    key: "strides"
    value {
      list {
        i: 1
        i: 1
        i: 1
        i: 1
      }
    }
  }
  attr {
    key: "use_cudnn_on_gpu"
    value {
      b: true
    }
  }
}
node {
  name: "conv2d_91/BiasAdd/ReadVariableOp"
  op: "ReadVariableOp"
  input: "conv2d_91/bias"
  attr {
    key: "dtype"
    value {
      type: DT_FLOAT
    }
  }
}
node {
  name: "conv2d_91/BiasAdd"
  op: "BiasAdd"
  input: "conv2d_91/Conv2D"
  input: "conv2d_91/BiasAdd/ReadVariableOp"
  attr {
    key: "T"
    value {
      type: DT_FLOAT
    }
  }
  attr {
    key: "data_format"
    value {
      s: "NHWC"
    }
  }
}
node {
  name: "conv2d_91/Relu"
  op: "Relu"
  input: "conv2d_91/BiasAdd"
  attr {
    key: "T"
    value {
      type: DT_FLOAT
    }
  }
}
node {
  name: "conv2d_92/kernel/Initializer/random_uniform/shape"
  op: "Const"
  attr {
    key: "_class"
    value {
      list {
        s: "loc:@conv2d_92/kernel"
      }
    }
  }
  attr {
    key: "dtype"
    value {
      type: DT_INT32
    }
  }
  attr {
    key: "value"
    value {
      tensor {
        dtype: DT_INT32
        tensor_shape {
          dim {
            size: 4
          }
        }
        tensor_content: "\003\000\000\000\003\000\000\000@\000\000\000\300\000\000\000"
      }
    }
  }
}
node {
  name: "conv2d_92/kernel/Initializer/random_uniform/min"
  op: "Const"
  attr {
    key: "_class"
    value {
      list {
        s: "loc:@conv2d_92/kernel"
      }
    }
  }
  attr {
    key: "dtype"
    value {
      type: DT_FLOAT
    }
  }
  attr {
    key: "value"
    value {
      tensor {
        dtype: DT_FLOAT
        tensor_shape {
        }
        float_val: -0.05103103816509247
      }
    }
  }
}
node {
  name: "conv2d_92/kernel/Initializer/random_uniform/max"
  op: "Const"
  attr {
    key: "_class"
    value {
      list {
        s: "loc:@conv2d_92/kernel"
      }
    }
  }
  attr {
    key: "dtype"
    value {
      type: DT_FLOAT
    }
  }
  attr {
    key: "value"
    value {
      tensor {
        dtype: DT_FLOAT
        tensor_shape {
        }
        float_val: 0.05103103816509247
      }
    }
  }
}
node {
  name: "conv2d_92/kernel/Initializer/random_uniform/RandomUniform"
  op: "RandomUniform"
  input: "conv2d_92/kernel/Initializer/random_uniform/shape"
  attr {
    key: "T"
    value {
      type: DT_INT32
    }
  }
  attr {
    key: "_class"
    value {
      list {
        s: "loc:@conv2d_92/kernel"
      }
    }
  }
  attr {
    key: "dtype"
    value {
      type: DT_FLOAT
    }
  }
  attr {
    key: "seed"
    value {
      i: 0
    }
  }
  attr {
    key: "seed2"
    value {
      i: 0
    }
  }
}
node {
  name: "conv2d_92/kernel/Initializer/random_uniform/sub"
  op: "Sub"
  input: "conv2d_92/kernel/Initializer/random_uniform/max"
  input: "conv2d_92/kernel/Initializer/random_uniform/min"
  attr {
    key: "T"
    value {
      type: DT_FLOAT
    }
  }
  attr {
    key: "_class"
    value {
      list {
        s: "loc:@conv2d_92/kernel"
      }
    }
  }
}
node {
  name: "conv2d_92/kernel/Initializer/random_uniform/mul"
  op: "Mul"
  input: "conv2d_92/kernel/Initializer/random_uniform/RandomUniform"
  input: "conv2d_92/kernel/Initializer/random_uniform/sub"
  attr {
    key: "T"
    value {
      type: DT_FLOAT
    }
  }
  attr {
    key: "_class"
    value {
      list {
        s: "loc:@conv2d_92/kernel"
      }
    }
  }
}
node {
  name: "conv2d_92/kernel/Initializer/random_uniform"
  op: "Add"
  input: "conv2d_92/kernel/Initializer/random_uniform/mul"
  input: "conv2d_92/kernel/Initializer/random_uniform/min"
  attr {
    key: "T"
    value {
      type: DT_FLOAT
    }
  }
  attr {
    key: "_class"
    value {
      list {
        s: "loc:@conv2d_92/kernel"
      }
    }
  }
}
node {
  name: "conv2d_92/kernel"
  op: "VarHandleOp"
  attr {
    key: "_class"
    value {
      list {
        s: "loc:@conv2d_92/kernel"
      }
    }
  }
  attr {
    key: "container"
    value {
      s: ""
    }
  }
  attr {
    key: "dtype"
    value {
      type: DT_FLOAT
    }
  }
  attr {
    key: "shape"
    value {
      shape {
        dim {
          size: 3
        }
        dim {
          size: 3
        }
        dim {
          size: 64
        }
        dim {
          size: 192
        }
      }
    }
  }
  attr {
    key: "shared_name"
    value {
      s: "conv2d_92/kernel"
    }
  }
}
node {
  name: "conv2d_92/kernel/IsInitialized/VarIsInitializedOp"
  op: "VarIsInitializedOp"
  input: "conv2d_92/kernel"
}
node {
  name: "conv2d_92/kernel/Assign"
  op: "AssignVariableOp"
  input: "conv2d_92/kernel"
  input: "conv2d_92/kernel/Initializer/random_uniform"
  attr {
    key: "dtype"
    value {
      type: DT_FLOAT
    }
  }
}
node {
  name: "conv2d_92/kernel/Read/ReadVariableOp"
  op: "ReadVariableOp"
  input: "conv2d_92/kernel"
  attr {
    key: "dtype"
    value {
      type: DT_FLOAT
    }
  }
}
node {
  name: "conv2d_92/bias/Initializer/zeros"
  op: "Const"
  attr {
    key: "_class"
    value {
      list {
        s: "loc:@conv2d_92/bias"
      }
    }
  }
  attr {
    key: "dtype"
    value {
      type: DT_FLOAT
    }
  }
  attr {
    key: "value"
    value {
      tensor {
        dtype: DT_FLOAT
        tensor_shape {
          dim {
            size: 192
          }
        }
        float_val: 0.0
      }
    }
  }
}
node {
  name: "conv2d_92/bias"
  op: "VarHandleOp"
  attr {
    key: "_class"
    value {
      list {
        s: "loc:@conv2d_92/bias"
      }
    }
  }
  attr {
    key: "container"
    value {
      s: ""
    }
  }
  attr {
    key: "dtype"
    value {
      type: DT_FLOAT
    }
  }
  attr {
    key: "shape"
    value {
      shape {
        dim {
          size: 192
        }
      }
    }
  }
  attr {
    key: "shared_name"
    value {
      s: "conv2d_92/bias"
    }
  }
}
node {
  name: "conv2d_92/bias/IsInitialized/VarIsInitializedOp"
  op: "VarIsInitializedOp"
  input: "conv2d_92/bias"
}
node {
  name: "conv2d_92/bias/Assign"
  op: "AssignVariableOp"
  input: "conv2d_92/bias"
  input: "conv2d_92/bias/Initializer/zeros"
  attr {
    key: "dtype"
    value {
      type: DT_FLOAT
    }
  }
}
node {
  name: "conv2d_92/bias/Read/ReadVariableOp"
  op: "ReadVariableOp"
  input: "conv2d_92/bias"
  attr {
    key: "dtype"
    value {
      type: DT_FLOAT
    }
  }
}
node {
  name: "conv2d_92/dilation_rate"
  op: "Const"
  attr {
    key: "dtype"
    value {
      type: DT_INT32
    }
  }
  attr {
    key: "value"
    value {
      tensor {
        dtype: DT_INT32
        tensor_shape {
          dim {
            size: 2
          }
        }
        tensor_content: "\001\000\000\000\001\000\000\000"
      }
    }
  }
}
node {
  name: "conv2d_92/Conv2D/ReadVariableOp"
  op: "ReadVariableOp"
  input: "conv2d_92/kernel"
  attr {
    key: "dtype"
    value {
      type: DT_FLOAT
    }
  }
}
node {
  name: "conv2d_92/Conv2D"
  op: "Conv2D"
  input: "conv2d_91/Relu"
  input: "conv2d_92/Conv2D/ReadVariableOp"
  attr {
    key: "T"
    value {
      type: DT_FLOAT
    }
  }
  attr {
    key: "data_format"
    value {
      s: "NHWC"
    }
  }
  attr {
    key: "dilations"
    value {
      list {
        i: 1
        i: 1
        i: 1
        i: 1
      }
    }
  }
  attr {
    key: "explicit_paddings"
    value {
      list {
      }
    }
  }
  attr {
    key: "padding"
    value {
      s: "SAME"
    }
  }
  attr {
    key: "strides"
    value {
      list {
        i: 1
        i: 1
        i: 1
        i: 1
      }
    }
  }
  attr {
    key: "use_cudnn_on_gpu"
    value {
      b: true
    }
  }
}
node {
  name: "conv2d_92/BiasAdd/ReadVariableOp"
  op: "ReadVariableOp"
  input: "conv2d_92/bias"
  attr {
    key: "dtype"
    value {
      type: DT_FLOAT
    }
  }
}
node {
  name: "conv2d_92/BiasAdd"
  op: "BiasAdd"
  input: "conv2d_92/Conv2D"
  input: "conv2d_92/BiasAdd/ReadVariableOp"
  attr {
    key: "T"
    value {
      type: DT_FLOAT
    }
  }
  attr {
    key: "data_format"
    value {
      s: "NHWC"
    }
  }
}
node {
  name: "conv2d_92/Relu"
  op: "Relu"
  input: "conv2d_92/BiasAdd"
  attr {
    key: "T"
    value {
      type: DT_FLOAT
    }
  }
}
node {
  name: "zero_padding2d_25/Pad/paddings"
  op: "Const"
  attr {
    key: "dtype"
    value {
      type: DT_INT32
    }
  }
  attr {
    key: "value"
    value {
      tensor {
        dtype: DT_INT32
        tensor_shape {
          dim {
            size: 4
          }
          dim {
            size: 2
          }
        }
        tensor_content: "…"
      }
    }
  }
}
node {
  name: "zero_padding2d_25/Pad"
  op: "Pad"
  input: "conv2d_92/Relu"
  input: "zero_padding2d_25/Pad/paddings"
  attr {
    key: "T"
    value {
      type: DT_FLOAT
    }
  }
  attr {
    key: "Tpaddings"
    value {
      type: DT_INT32
    }
  }
}
node {
  name: "max_pooling2d_37/MaxPool"
  op: "MaxPool"
  input: "zero_padding2d_25/Pad"
  attr {
    key: "T"
    value {
      type: DT_FLOAT
    }
  }
  attr {
    key: "data_format"
    value {
      s: "NHWC"
    }
  }
  attr {
    key: "ksize"
    value {
      list {
        i: 1
        i: 3
        i: 3
        i: 1
      }
    }
  }
  attr {
    key: "padding"
    value {
      s: "VALID"
    }
  }
  attr {
    key: "strides"
    value {
      list {
        i: 1
        i: 2
        i: 2
        i: 1
      }
    }
  }
}
node {
  name: "conv2d_94/kernel/Initializer/random_uniform/shape"
  op: "Const"
  attr {
    key: "_class"
    value {
      list {
        s: "loc:@conv2d_94/kernel"
      }
    }
  }
  attr {
    key: "dtype"
    value {
      type: DT_INT32
    }
  }
  attr {
    key: "value"
    value {
      tensor {
        dtype: DT_INT32
        tensor_shape {
          dim {
            size: 4
          }
        }
        tensor_content: "\001\000\000\000\001\000\000\000\300\000\000\000`\000\000\000"
      }
    }
  }
}
node {
  name: "conv2d_94/kernel/Initializer/random_uniform/min"
  op: "Const"
  attr {
    key: "_class"
    value {
      list {
        s: "loc:@conv2d_94/kernel"
      }
    }
  }
  attr {
    key: "dtype"
    value {
      type: DT_FLOAT
    }
  }
  attr {
    key: "value"
    value {
      tensor {
        dtype: DT_FLOAT
        tensor_shape {
        }
        float_val: -0.14433756470680237
      }
    }
  }
}
node {
  name: "conv2d_94/kernel/Initializer/random_uniform/max"
  op: "Const"
  attr {
    key: "_class"
    value {
      list {
        s: "loc:@conv2d_94/kernel"
      }
    }
  }
  attr {
    key: "dtype"
    value {
      type: DT_FLOAT
    }
  }
  attr {
    key: "value"
    value {
      tensor {
        dtype: DT_FLOAT
        tensor_shape {
        }
        float_val: 0.14433756470680237
      }
    }
  }
}
node {
  name: "conv2d_94/kernel/Initializer/random_uniform/RandomUniform"
  op: "RandomUniform"
  input: "conv2d_94/kernel/Initializer/random_uniform/shape"
  attr {
    key: "T"
    value {
      type: DT_INT32
    }
  }
  attr {
    key: "_class"
    value {
      list {
        s: "loc:@conv2d_94/kernel"
      }
    }
  }
  attr {
    key: "dtype"
    value {
      type: DT_FLOAT
    }
  }
  attr {
    key: "seed"
    value {
      i: 0
    }
  }
  attr {
    key: "seed2"
    value {
      i: 0
    }
  }
}
node {
  name: "conv2d_94/kernel/Initializer/random_uniform/sub"
  op: "Sub"
  input: "conv2d_94/kernel/Initializer/random_uniform/max"
  input: "conv2d_94/kernel/Initializer/random_uniform/min"
  attr {
    key: "T"
    value {
      type: DT_FLOAT
    }
  }
  attr {
    key: "_class"
    value {
      list {
        s: "loc:@conv2d_94/kernel"
      }
    }
  }
}
node {
  name: "conv2d_94/kernel/Initializer/random_uniform/mul"
  op: "Mul"
  input: "conv2d_94/kernel/Initializer/random_uniform/RandomUniform"
  input: "conv2d_94/kernel/Initializer/random_uniform/sub"
  attr {
    key: "T"
    value {
      type: DT_FLOAT
    }
  }
  attr {
    key: "_class"
    value {
      list {
        s: "loc:@conv2d_94/kernel"
      }
    }
  }
}
node {
  name: "conv2d_94/kernel/Initializer/random_uniform"
  op: "Add"
  input: "conv2d_94/kernel/Initializer/random_uniform/mul"
  input: "conv2d_94/kernel/Initializer/random_uniform/min"
  attr {
    key: "T"
    value {
      type: DT_FLOAT
    }
  }
  attr {
    key: "_class"
    value {
      list {
        s: "loc:@conv2d_94/kernel"
      }
    }
  }
}
node {
  name: "conv2d_94/kernel"
  op: "VarHandleOp"
  attr {
    key: "_class"
    value {
      list {
        s: "loc:@conv2d_94/kernel"
      }
    }
  }
  attr {
    key: "container"
    value {
      s: ""
    }
  }
  attr {
    key: "dtype"
    value {
      type: DT_FLOAT
    }
  }
  attr {
    key: "shape"
    value {
      shape {
        dim {
          size: 1
        }
        dim {
          size: 1
        }
        dim {
          size: 192
        }
        dim {
          size: 96
        }
      }
    }
  }
  attr {
    key: "shared_name"
    value {
      s: "conv2d_94/kernel"
    }
  }
}
node {
  name: "conv2d_94/kernel/IsInitialized/VarIsInitializedOp"
  op: "VarIsInitializedOp"
  input: "conv2d_94/kernel"
}
node {
  name: "conv2d_94/kernel/Assign"
  op: "AssignVariableOp"
  input: "conv2d_94/kernel"
  input: "conv2d_94/kernel/Initializer/random_uniform"
  attr {
    key: "dtype"
    value {
      type: DT_FLOAT
    }
  }
}
node {
  name: "conv2d_94/kernel/Read/ReadVariableOp"
  op: "ReadVariableOp"
  input: "conv2d_94/kernel"
  attr {
    key: "dtype"
    value {
      type: DT_FLOAT
    }
  }
}
node {
  name: "conv2d_94/bias/Initializer/zeros"
  op: "Const"
  attr {
    key: "_class"
    value {
      list {
        s: "loc:@conv2d_94/bias"
      }
    }
  }
  attr {
    key: "dtype"
    value {
      type: DT_FLOAT
    }
  }
  attr {
    key: "value"
    value {
      tensor {
        dtype: DT_FLOAT
        tensor_shape {
          dim {
            size: 96
          }
        }
        float_val: 0.0
      }
    }
  }
}
node {
  name: "conv2d_94/bias"
  op: "VarHandleOp"
  attr {
    key: "_class"
    value {
      list {
        s: "loc:@conv2d_94/bias"
      }
    }
  }
  attr {
    key: "container"
    value {
      s: ""
    }
  }
  attr {
    key: "dtype"
    value {
      type: DT_FLOAT
    }
  }
  attr {
    key: "shape"
    value {
      shape {
        dim {
          size: 96
        }
      }
    }
  }
  attr {
    key: "shared_name"
    value {
      s: "conv2d_94/bias"
    }
  }
}
node {
  name: "conv2d_94/bias/IsInitialized/VarIsInitializedOp"
  op: "VarIsInitializedOp"
  input: "conv2d_94/bias"
}
node {
  name: "conv2d_94/bias/Assign"
  op: "AssignVariableOp"
  input: "conv2d_94/bias"
  input: "conv2d_94/bias/Initializer/zeros"
  attr {
    key: "dtype"
    value {
      type: DT_FLOAT
    }
  }
}
node {
  name: "conv2d_94/bias/Read/ReadVariableOp"
  op: "ReadVariableOp"
  input: "conv2d_94/bias"
  attr {
    key: "dtype"
    value {
      type: DT_FLOAT
    }
  }
}
node {
  name: "conv2d_94/dilation_rate"
  op: "Const"
  attr {
    key: "dtype"
    value {
      type: DT_INT32
    }
  }
  attr {
    key: "value"
    value {
      tensor {
        dtype: DT_INT32
        tensor_shape {
          dim {
            size: 2
          }
        }
        tensor_content: "\001\000\000\000\001\000\000\000"
      }
    }
  }
}
node {
  name: "conv2d_94/Conv2D/ReadVariableOp"
  op: "ReadVariableOp"
  input: "conv2d_94/kernel"
  attr {
    key: "dtype"
    value {
      type: DT_FLOAT
    }
  }
}
node {
  name: "conv2d_94/Conv2D"
  op: "Conv2D"
  input: "max_pooling2d_37/MaxPool"
  input: "conv2d_94/Conv2D/ReadVariableOp"
  attr {
    key: "T"
    value {
      type: DT_FLOAT
    }
  }
  attr {
    key: "data_format"
    value {
      s: "NHWC"
    }
  }
  attr {
    key: "dilations"
    value {
      list {
        i: 1
        i: 1
        i: 1
        i: 1
      }
    }
  }
  attr {
    key: "explicit_paddings"
    value {
      list {
      }
    }
  }
  attr {
    key: "padding"
    value {
      s: "VALID"
    }
  }
  attr {
    key: "strides"
    value {
      list {
        i: 1
        i: 1
        i: 1
        i: 1
      }
    }
  }
  attr {
    key: "use_cudnn_on_gpu"
    value {
      b: true
    }
  }
}
node {
  name: "conv2d_94/BiasAdd/ReadVariableOp"
  op: "ReadVariableOp"
  input: "conv2d_94/bias"
  attr {
    key: "dtype"
    value {
      type: DT_FLOAT
    }
  }
}
node {
  name: "conv2d_94/BiasAdd"
  op: "BiasAdd"
  input: "conv2d_94/Conv2D"
  input: "conv2d_94/BiasAdd/ReadVariableOp"
  attr {
    key: "T"
    value {
      type: DT_FLOAT
    }
  }
  attr {
    key: "data_format"
    value {
      s: "NHWC"
    }
  }
}
node {
  name: "conv2d_94/Relu"
  op: "Relu"
  input: "conv2d_94/BiasAdd"
  attr {
    key: "T"
    value {
      type: DT_FLOAT
    }
  }
}
node {
  name: "conv2d_96/kernel/Initializer/random_uniform/shape"
  op: "Const"
  attr {
    key: "_class"
    value {
      list {
        s: "loc:@conv2d_96/kernel"
      }
    }
  }
  attr {
    key: "dtype"
    value {
      type: DT_INT32
    }
  }
  attr {
    key: "value"
    value {
      tensor {
        dtype: DT_INT32
        tensor_shape {
          dim {
            size: 4
          }
        }
        tensor_content: "\001\000\000\000\001\000\000\000\300\000\000\000\020\000\000\000"
      }
    }
  }
}
node {
  name: "conv2d_96/kernel/Initializer/random_uniform/min"
  op: "Const"
  attr {
    key: "_class"
    value {
      list {
        s: "loc:@conv2d_96/kernel"
      }
    }
  }
  attr {
    key: "dtype"
    value {
      type: DT_FLOAT
    }
  }
  attr {
    key: "value"
    value {
      tensor {
        dtype: DT_FLOAT
        tensor_shape {
        }
        float_val: -0.16984155774116516
      }
    }
  }
}
node {
  name: "conv2d_96/kernel/Initializer/random_uniform/max"
  op: "Const"
  attr {
    key: "_class"
    value {
      list {
        s: "loc:@conv2d_96/kernel"
      }
    }
  }
  attr {
    key: "dtype"
    value {
      type: DT_FLOAT
    }
  }
  attr {
    key: "value"
    value {
      tensor {
        dtype: DT_FLOAT
        tensor_shape {
        }
        float_val: 0.16984155774116516
      }
    }
  }
}
node {
  name: "conv2d_96/kernel/Initializer/random_uniform/RandomUniform"
  op: "RandomUniform"
  input: "conv2d_96/kernel/Initializer/random_uniform/shape"
  attr {
    key: "T"
    value {
      type: DT_INT32
    }
  }
  attr {
    key: "_class"
    value {
      list {
        s: "loc:@conv2d_96/kernel"
      }
    }
  }
  attr {
    key: "dtype"
    value {
      type: DT_FLOAT
    }
  }
  attr {
    key: "seed"
    value {
      i: 0
    }
  }
  attr {
    key: "seed2"
    value {
      i: 0
    }
  }
}
node {
  name: "conv2d_96/kernel/Initializer/random_uniform/sub"
  op: "Sub"
  input: "conv2d_96/kernel/Initializer/random_uniform/max"
  input: "conv2d_96/kernel/Initializer/random_uniform/min"
  attr {
    key: "T"
    value {
      type: DT_FLOAT
    }
  }
  attr {
    key: "_class"
    value {
      list {
        s: "loc:@conv2d_96/kernel"
      }
    }
  }
}
node {
  name: "conv2d_96/kernel/Initializer/random_uniform/mul"
  op: "Mul"
  input: "conv2d_96/kernel/Initializer/random_uniform/RandomUniform"
  input: "conv2d_96/kernel/Initializer/random_uniform/sub"
  attr {
    key: "T"
    value {
      type: DT_FLOAT
    }
  }
  attr {
    key: "_class"
    value {
      list {
        s: "loc:@conv2d_96/kernel"
      }
    }
  }
}
node {
  name: "conv2d_96/kernel/Initializer/random_uniform"
  op: "Add"
  input: "conv2d_96/kernel/Initializer/random_uniform/mul"
  input: "conv2d_96/kernel/Initializer/random_uniform/min"
  attr {
    key: "T"
    value {
      type: DT_FLOAT
    }
  }
  attr {
    key: "_class"
    value {
      list {
        s: "loc:@conv2d_96/kernel"
      }
    }
  }
}
node {
  name: "conv2d_96/kernel"
  op: "VarHandleOp"
  attr {
    key: "_class"
    value {
      list {
        s: "loc:@conv2d_96/kernel"
      }
    }
  }
  attr {
    key: "container"
    value {
      s: ""
    }
  }
  attr {
    key: "dtype"
    value {
      type: DT_FLOAT
    }
  }
  attr {
    key: "shape"
    value {
      shape {
        dim {
          size: 1
        }
        dim {
          size: 1
        }
        dim {
          size: 192
        }
        dim {
          size: 16
        }
      }
    }
  }
  attr {
    key: "shared_name"
    value {
      s: "conv2d_96/kernel"
    }
  }
}
node {
  name: "conv2d_96/kernel/IsInitialized/VarIsInitializedOp"
  op: "VarIsInitializedOp"
  input: "conv2d_96/kernel"
}
node {
  name: "conv2d_96/kernel/Assign"
  op: "AssignVariableOp"
  input: "conv2d_96/kernel"
  input: "conv2d_96/kernel/Initializer/random_uniform"
  attr {
    key: "dtype"
    value {
      type: DT_FLOAT
    }
  }
}
node {
  name: "conv2d_96/kernel/Read/ReadVariableOp"
  op: "ReadVariableOp"
  input: "conv2d_96/kernel"
  attr {
    key: "dtype"
    value {
      type: DT_FLOAT
    }
  }
}
node {
  name: "conv2d_96/bias/Initializer/zeros"
  op: "Const"
  attr {
    key: "_class"
    value {
      list {
        s: "loc:@conv2d_96/bias"
      }
    }
  }
  attr {
    key: "dtype"
    value {
      type: DT_FLOAT
    }
  }
  attr {
    key: "value"
    value {
      tensor {
        dtype: DT_FLOAT
        tensor_shape {
          dim {
            size: 16
          }
        }
        float_val: 0.0
      }
    }
  }
}
node {
  name: "conv2d_96/bias"
  op: "VarHandleOp"
  attr {
    key: "_class"
    value {
      list {
        s: "loc:@conv2d_96/bias"
      }
    }
  }
  attr {
    key: "container"
    value {
      s: ""
    }
  }
  attr {
    key: "dtype"
    value {
      type: DT_FLOAT
    }
  }
  attr {
    key: "shape"
    value {
      shape {
        dim {
          size: 16
        }
      }
    }
  }
  attr {
    key: "shared_name"
    value {
      s: "conv2d_96/bias"
    }
  }
}
node {
  name: "conv2d_96/bias/IsInitialized/VarIsInitializedOp"
  op: "VarIsInitializedOp"
  input: "conv2d_96/bias"
}
node {
  name: "conv2d_96/bias/Assign"
  op: "AssignVariableOp"
  input: "conv2d_96/bias"
  input: "conv2d_96/bias/Initializer/zeros"
  attr {
    key: "dtype"
    value {
      type: DT_FLOAT
    }
  }
}
node {
  name: "conv2d_96/bias/Read/ReadVariableOp"
  op: "ReadVariableOp"
  input: "conv2d_96/bias"
  attr {
    key: "dtype"
    value {
      type: DT_FLOAT
    }
  }
}
node {
  name: "conv2d_96/dilation_rate"
  op: "Const"
  attr {
    key: "dtype"
    value {
      type: DT_INT32
    }
  }
  attr {
    key: "value"
    value {
      tensor {
        dtype: DT_INT32
        tensor_shape {
          dim {
            size: 2
          }
        }
        tensor_content: "\001\000\000\000\001\000\000\000"
      }
    }
  }
}
node {
  name: "conv2d_96/Conv2D/ReadVariableOp"
  op: "ReadVariableOp"
  input: "conv2d_96/kernel"
  attr {
    key: "dtype"
    value {
      type: DT_FLOAT
    }
  }
}
node {
  name: "conv2d_96/Conv2D"
  op: "Conv2D"
  input: "max_pooling2d_37/MaxPool"
  input: "conv2d_96/Conv2D/ReadVariableOp"
  attr {
    key: "T"
    value {
      type: DT_FLOAT
    }
  }
  attr {
    key: "data_format"
    value {
      s: "NHWC"
    }
  }
  attr {
    key: "dilations"
    value {
      list {
        i: 1
        i: 1
        i: 1
        i: 1
      }
    }
  }
  attr {
    key: "explicit_paddings"
    value {
      list {
      }
    }
  }
  attr {
    key: "padding"
    value {
      s: "VALID"
    }
  }
  attr {
    key: "strides"
    value {
      list {
        i: 1
        i: 1
        i: 1
        i: 1
      }
    }
  }
  attr {
    key: "use_cudnn_on_gpu"
    value {
      b: true
    }
  }
}
node {
  name: "conv2d_96/BiasAdd/ReadVariableOp"
  op: "ReadVariableOp"
  input: "conv2d_96/bias"
  attr {
    key: "dtype"
    value {
      type: DT_FLOAT
    }
  }
}
node {
  name: "conv2d_96/BiasAdd"
  op: "BiasAdd"
  input: "conv2d_96/Conv2D"
  input: "conv2d_96/BiasAdd/ReadVariableOp"
  attr {
    key: "T"
    value {
      type: DT_FLOAT
    }
  }
  attr {
    key: "data_format"
    value {
      s: "NHWC"
    }
  }
}
node {
  name: "conv2d_96/Relu"
  op: "Relu"
  input: "conv2d_96/BiasAdd"
  attr {
    key: "T"
    value {
      type: DT_FLOAT
    }
  }
}
node {
  name: "conv2d_98/kernel/Initializer/random_uniform/shape"
  op: "Const"
  attr {
    key: "_class"
    value {
      list {
        s: "loc:@conv2d_98/kernel"
      }
    }
  }
  attr {
    key: "dtype"
    value {
      type: DT_INT32
    }
  }
  attr {
    key: "value"
    value {
      tensor {
        dtype: DT_INT32
        tensor_shape {
          dim {
            size: 4
          }
        }
        tensor_content: "\001\000\000\000\001\000\000\000\300\000\000\000 \000\000\000"
      }
    }
  }
}
node {
  name: "conv2d_98/kernel/Initializer/random_uniform/min"
  op: "Const"
  attr {
    key: "_class"
    value {
      list {
        s: "loc:@conv2d_98/kernel"
      }
    }
  }
  attr {
    key: "dtype"
    value {
      type: DT_FLOAT
    }
  }
  attr {
    key: "value"
    value {
      tensor {
        dtype: DT_FLOAT
        tensor_shape {
        }
        float_val: -0.16366341710090637
      }
    }
  }
}
node {
  name: "conv2d_98/kernel/Initializer/random_uniform/max"
  op: "Const"
  attr {
    key: "_class"
    value {
      list {
        s: "loc:@conv2d_98/kernel"
      }
    }
  }
  attr {
    key: "dtype"
    value {
      type: DT_FLOAT
    }
  }
  attr {
    key: "value"
    value {
      tensor {
        dtype: DT_FLOAT
        tensor_shape {
        }
        float_val: 0.16366341710090637
      }
    }
  }
}
node {
  name: "conv2d_98/kernel/Initializer/random_uniform/RandomUniform"
  op: "RandomUniform"
  input: "conv2d_98/kernel/Initializer/random_uniform/shape"
  attr {
    key: "T"
    value {
      type: DT_INT32
    }
  }
  attr {
    key: "_class"
    value {
      list {
        s: "loc:@conv2d_98/kernel"
      }
    }
  }
  attr {
    key: "dtype"
    value {
      type: DT_FLOAT
    }
  }
  attr {
    key: "seed"
    value {
      i: 0
    }
  }
  attr {
    key: "seed2"
    value {
      i: 0
    }
  }
}
node {
  name: "conv2d_98/kernel/Initializer/random_uniform/sub"
  op: "Sub"
  input: "conv2d_98/kernel/Initializer/random_uniform/max"
  input: "conv2d_98/kernel/Initializer/random_uniform/min"
  attr {
    key: "T"
    value {
      type: DT_FLOAT
    }
  }
  attr {
    key: "_class"
    value {
      list {
        s: "loc:@conv2d_98/kernel"
      }
    }
  }
}
node {
  name: "conv2d_98/kernel/Initializer/random_uniform/mul"
  op: "Mul"
  input: "conv2d_98/kernel/Initializer/random_uniform/RandomUniform"
  input: "conv2d_98/kernel/Initializer/random_uniform/sub"
  attr {
    key: "T"
    value {
      type: DT_FLOAT
    }
  }
  attr {
    key: "_class"
    value {
      list {
        s: "loc:@conv2d_98/kernel"
      }
    }
  }
}
node {
  name: "conv2d_98/kernel/Initializer/random_uniform"
  op: "Add"
  input: "conv2d_98/kernel/Initializer/random_uniform/mul"
  input: "conv2d_98/kernel/Initializer/random_uniform/min"
  attr {
    key: "T"
    value {
      type: DT_FLOAT
    }
  }
  attr {
    key: "_class"
    value {
      list {
        s: "loc:@conv2d_98/kernel"
      }
    }
  }
}
node {
  name: "conv2d_98/kernel"
  op: "VarHandleOp"
  attr {
    key: "_class"
    value {
      list {
        s: "loc:@conv2d_98/kernel"
      }
    }
  }
  attr {
    key: "container"
    value {
      s: ""
    }
  }
  attr {
    key: "dtype"
    value {
      type: DT_FLOAT
    }
  }
  attr {
    key: "shape"
    value {
      shape {
        dim {
          size: 1
        }
        dim {
          size: 1
        }
        dim {
          size: 192
        }
        dim {
          size: 32
        }
      }
    }
  }
  attr {
    key: "shared_name"
    value {
      s: "conv2d_98/kernel"
    }
  }
}
node {
  name: "conv2d_98/kernel/IsInitialized/VarIsInitializedOp"
  op: "VarIsInitializedOp"
  input: "conv2d_98/kernel"
}
node {
  name: "conv2d_98/kernel/Assign"
  op: "AssignVariableOp"
  input: "conv2d_98/kernel"
  input: "conv2d_98/kernel/Initializer/random_uniform"
  attr {
    key: "dtype"
    value {
      type: DT_FLOAT
    }
  }
}
node {
  name: "conv2d_98/kernel/Read/ReadVariableOp"
  op: "ReadVariableOp"
  input: "conv2d_98/kernel"
  attr {
    key: "dtype"
    value {
      type: DT_FLOAT
    }
  }
}
node {
  name: "conv2d_98/bias/Initializer/zeros"
  op: "Const"
  attr {
    key: "_class"
    value {
      list {
        s: "loc:@conv2d_98/bias"
      }
    }
  }
  attr {
    key: "dtype"
    value {
      type: DT_FLOAT
    }
  }
  attr {
    key: "value"
    value {
      tensor {
        dtype: DT_FLOAT
        tensor_shape {
          dim {
            size: 32
          }
        }
        float_val: 0.0
      }
    }
  }
}
node {
  name: "conv2d_98/bias"
  op: "VarHandleOp"
  attr {
    key: "_class"
    value {
      list {
        s: "loc:@conv2d_98/bias"
      }
    }
  }
  attr {
    key: "container"
    value {
      s: ""
    }
  }
  attr {
    key: "dtype"
    value {
      type: DT_FLOAT
    }
  }
  attr {
    key: "shape"
    value {
      shape {
        dim {
          size: 32
        }
      }
    }
  }
  attr {
    key: "shared_name"
    value {
      s: "conv2d_98/bias"
    }
  }
}
node {
  name: "conv2d_98/bias/IsInitialized/VarIsInitializedOp"
  op: "VarIsInitializedOp"
  input: "conv2d_98/bias"
}
node {
  name: "conv2d_98/bias/Assign"
  op: "AssignVariableOp"
  input: "conv2d_98/bias"
  input: "conv2d_98/bias/Initializer/zeros"
  attr {
    key: "dtype"
    value {
      type: DT_FLOAT
    }
  }
}
node {
  name: "conv2d_98/bias/Read/ReadVariableOp"
  op: "ReadVariableOp"
  input: "conv2d_98/bias"
  attr {
    key: "dtype"
    value {
      type: DT_FLOAT
    }
  }
}
node {
  name: "conv2d_98/dilation_rate"
  op: "Const"
  attr {
    key: "dtype"
    value {
      type: DT_INT32
    }
  }
  attr {
    key: "value"
    value {
      tensor {
        dtype: DT_INT32
        tensor_shape {
          dim {
            size: 2
          }
        }
        tensor_content: "\001\000\000\000\001\000\000\000"
      }
    }
  }
}
node {
  name: "conv2d_98/Conv2D/ReadVariableOp"
  op: "ReadVariableOp"
  input: "conv2d_98/kernel"
  attr {
    key: "dtype"
    value {
      type: DT_FLOAT
    }
  }
}
node {
  name: "conv2d_98/Conv2D"
  op: "Conv2D"
  input: "max_pooling2d_37/MaxPool"
  input: "conv2d_98/Conv2D/ReadVariableOp"
  attr {
    key: "T"
    value {
      type: DT_FLOAT
    }
  }
  attr {
    key: "data_format"
    value {
      s: "NHWC"
    }
  }
  attr {
    key: "dilations"
    value {
      list {
        i: 1
        i: 1
        i: 1
        i: 1
      }
    }
  }
  attr {
    key: "explicit_paddings"
    value {
      list {
      }
    }
  }
  attr {
    key: "padding"
    value {
      s: "VALID"
    }
  }
  attr {
    key: "strides"
    value {
      list {
        i: 1
        i: 1
        i: 1
        i: 1
      }
    }
  }
  attr {
    key: "use_cudnn_on_gpu"
    value {
      b: true
    }
  }
}
node {
  name: "conv2d_98/BiasAdd/ReadVariableOp"
  op: "ReadVariableOp"
  input: "conv2d_98/bias"
  attr {
    key: "dtype"
    value {
      type: DT_FLOAT
    }
  }
}
node {
  name: "conv2d_98/BiasAdd"
  op: "BiasAdd"
  input: "conv2d_98/Conv2D"
  input: "conv2d_98/BiasAdd/ReadVariableOp"
  attr {
    key: "T"
    value {
      type: DT_FLOAT
    }
  }
  attr {
    key: "data_format"
    value {
      s: "NHWC"
    }
  }
}
node {
  name: "conv2d_98/Relu"
  op: "Relu"
  input: "conv2d_98/BiasAdd"
  attr {
    key: "T"
    value {
      type: DT_FLOAT
    }
  }
}
node {
  name: "conv2d_93/kernel/Initializer/random_uniform/shape"
  op: "Const"
  attr {
    key: "_class"
    value {
      list {
        s: "loc:@conv2d_93/kernel"
      }
    }
  }
  attr {
    key: "dtype"
    value {
      type: DT_INT32
    }
  }
  attr {
    key: "value"
    value {
      tensor {
        dtype: DT_INT32
        tensor_shape {
          dim {
            size: 4
          }
        }
        tensor_content: "\001\000\000\000\001\000\000\000\300\000\000\000@\000\000\000"
      }
    }
  }
}
node {
  name: "conv2d_93/kernel/Initializer/random_uniform/min"
  op: "Const"
  attr {
    key: "_class"
    value {
      list {
        s: "loc:@conv2d_93/kernel"
      }
    }
  }
  attr {
    key: "dtype"
    value {
      type: DT_FLOAT
    }
  }
  attr {
    key: "value"
    value {
      tensor {
        dtype: DT_FLOAT
        tensor_shape {
        }
        float_val: -0.1530931144952774
      }
    }
  }
}
node {
  name: "conv2d_93/kernel/Initializer/random_uniform/max"
  op: "Const"
  attr {
    key: "_class"
    value {
      list {
        s: "loc:@conv2d_93/kernel"
      }
    }
  }
  attr {
    key: "dtype"
    value {
      type: DT_FLOAT
    }
  }
  attr {
    key: "value"
    value {
      tensor {
        dtype: DT_FLOAT
        tensor_shape {
        }
        float_val: 0.1530931144952774
      }
    }
  }
}
node {
  name: "conv2d_93/kernel/Initializer/random_uniform/RandomUniform"
  op: "RandomUniform"
  input: "conv2d_93/kernel/Initializer/random_uniform/shape"
  attr {
    key: "T"
    value {
      type: DT_INT32
    }
  }
  attr {
    key: "_class"
    value {
      list {
        s: "loc:@conv2d_93/kernel"
      }
    }
  }
  attr {
    key: "dtype"
    value {
      type: DT_FLOAT
    }
  }
  attr {
    key: "seed"
    value {
      i: 0
    }
  }
  attr {
    key: "seed2"
    value {
      i: 0
    }
  }
}
node {
  name: "conv2d_93/kernel/Initializer/random_uniform/sub"
  op: "Sub"
  input: "conv2d_93/kernel/Initializer/random_uniform/max"
  input: "conv2d_93/kernel/Initializer/random_uniform/min"
  attr {
    key: "T"
    value {
      type: DT_FLOAT
    }
  }
  attr {
    key: "_class"
    value {
      list {
        s: "loc:@conv2d_93/kernel"
      }
    }
  }
}
node {
  name: "conv2d_93/kernel/Initializer/random_uniform/mul"
  op: "Mul"
  input: "conv2d_93/kernel/Initializer/random_uniform/RandomUniform"
  input: "conv2d_93/kernel/Initializer/random_uniform/sub"
  attr {
    key: "T"
    value {
      type: DT_FLOAT
    }
  }
  attr {
    key: "_class"
    value {
      list {
        s: "loc:@conv2d_93/kernel"
      }
    }
  }
}
node {
  name: "conv2d_93/kernel/Initializer/random_uniform"
  op: "Add"
  input: "conv2d_93/kernel/Initializer/random_uniform/mul"
  input: "conv2d_93/kernel/Initializer/random_uniform/min"
  attr {
    key: "T"
    value {
      type: DT_FLOAT
    }
  }
  attr {
    key: "_class"
    value {
      list {
        s: "loc:@conv2d_93/kernel"
      }
    }
  }
}
node {
  name: "conv2d_93/kernel"
  op: "VarHandleOp"
  attr {
    key: "_class"
    value {
      list {
        s: "loc:@conv2d_93/kernel"
      }
    }
  }
  attr {
    key: "container"
    value {
      s: ""
    }
  }
  attr {
    key: "dtype"
    value {
      type: DT_FLOAT
    }
  }
  attr {
    key: "shape"
    value {
      shape {
        dim {
          size: 1
        }
        dim {
          size: 1
        }
        dim {
          size: 192
        }
        dim {
          size: 64
        }
      }
    }
  }
  attr {
    key: "shared_name"
    value {
      s: "conv2d_93/kernel"
    }
  }
}
node {
  name: "conv2d_93/kernel/IsInitialized/VarIsInitializedOp"
  op: "VarIsInitializedOp"
  input: "conv2d_93/kernel"
}
node {
  name: "conv2d_93/kernel/Assign"
  op: "AssignVariableOp"
  input: "conv2d_93/kernel"
  input: "conv2d_93/kernel/Initializer/random_uniform"
  attr {
    key: "dtype"
    value {
      type: DT_FLOAT
    }
  }
}
node {
  name: "conv2d_93/kernel/Read/ReadVariableOp"
  op: "ReadVariableOp"
  input: "conv2d_93/kernel"
  attr {
    key: "dtype"
    value {
      type: DT_FLOAT
    }
  }
}
node {
  name: "conv2d_93/bias/Initializer/zeros"
  op: "Const"
  attr {
    key: "_class"
    value {
      list {
        s: "loc:@conv2d_93/bias"
      }
    }
  }
  attr {
    key: "dtype"
    value {
      type: DT_FLOAT
    }
  }
  attr {
    key: "value"
    value {
      tensor {
        dtype: DT_FLOAT
        tensor_shape {
          dim {
            size: 64
          }
        }
        float_val: 0.0
      }
    }
  }
}
node {
  name: "conv2d_93/bias"
  op: "VarHandleOp"
  attr {
    key: "_class"
    value {
      list {
        s: "loc:@conv2d_93/bias"
      }
    }
  }
  attr {
    key: "container"
    value {
      s: ""
    }
  }
  attr {
    key: "dtype"
    value {
      type: DT_FLOAT
    }
  }
  attr {
    key: "shape"
    value {
      shape {
        dim {
          size: 64
        }
      }
    }
  }
  attr {
    key: "shared_name"
    value {
      s: "conv2d_93/bias"
    }
  }
}
node {
  name: "conv2d_93/bias/IsInitialized/VarIsInitializedOp"
  op: "VarIsInitializedOp"
  input: "conv2d_93/bias"
}
node {
  name: "conv2d_93/bias/Assign"
  op: "AssignVariableOp"
  input: "conv2d_93/bias"
  input: "conv2d_93/bias/Initializer/zeros"
  attr {
    key: "dtype"
    value {
      type: DT_FLOAT
    }
  }
}
node {
  name: "conv2d_93/bias/Read/ReadVariableOp"
  op: "ReadVariableOp"
  input: "conv2d_93/bias"
  attr {
    key: "dtype"
    value {
      type: DT_FLOAT
    }
  }
}
node {
  name: "conv2d_93/dilation_rate"
  op: "Const"
  attr {
    key: "dtype"
    value {
      type: DT_INT32
    }
  }
  attr {
    key: "value"
    value {
      tensor {
        dtype: DT_INT32
        tensor_shape {
          dim {
            size: 2
          }
        }
        tensor_content: "\001\000\000\000\001\000\000\000"
      }
    }
  }
}
node {
  name: "conv2d_93/Conv2D/ReadVariableOp"
  op: "ReadVariableOp"
  input: "conv2d_93/kernel"
  attr {
    key: "dtype"
    value {
      type: DT_FLOAT
    }
  }
}
node {
  name: "conv2d_93/Conv2D"
  op: "Conv2D"
  input: "max_pooling2d_37/MaxPool"
  input: "conv2d_93/Conv2D/ReadVariableOp"
  attr {
    key: "T"
    value {
      type: DT_FLOAT
    }
  }
  attr {
    key: "data_format"
    value {
      s: "NHWC"
    }
  }
  attr {
    key: "dilations"
    value {
      list {
        i: 1
        i: 1
        i: 1
        i: 1
      }
    }
  }
  attr {
    key: "explicit_paddings"
    value {
      list {
      }
    }
  }
  attr {
    key: "padding"
    value {
      s: "VALID"
    }
  }
  attr {
    key: "strides"
    value {
      list {
        i: 1
        i: 1
        i: 1
        i: 1
      }
    }
  }
  attr {
    key: "use_cudnn_on_gpu"
    value {
      b: true
    }
  }
}
node {
  name: "conv2d_93/BiasAdd/ReadVariableOp"
  op: "ReadVariableOp"
  input: "conv2d_93/bias"
  attr {
    key: "dtype"
    value {
      type: DT_FLOAT
    }
  }
}
node {
  name: "conv2d_93/BiasAdd"
  op: "BiasAdd"
  input: "conv2d_93/Conv2D"
  input: "conv2d_93/BiasAdd/ReadVariableOp"
  attr {
    key: "T"
    value {
      type: DT_FLOAT
    }
  }
  attr {
    key: "data_format"
    value {
      s: "NHWC"
    }
  }
}
node {
  name: "conv2d_93/Relu"
  op: "Relu"
  input: "conv2d_93/BiasAdd"
  attr {
    key: "T"
    value {
      type: DT_FLOAT
    }
  }
}
node {
  name: "conv2d_95/kernel/Initializer/random_uniform/shape"
  op: "Const"
  attr {
    key: "_class"
    value {
      list {
        s: "loc:@conv2d_95/kernel"
      }
    }
  }
  attr {
    key: "dtype"
    value {
      type: DT_INT32
    }
  }
  attr {
    key: "value"
    value {
      tensor {
        dtype: DT_INT32
        tensor_shape {
          dim {
            size: 4
          }
        }
        tensor_content: "\003\000\000\000\003\000\000\000`\000\000\000\200\000\000\000"
      }
    }
  }
}
node {
  name: "conv2d_95/kernel/Initializer/random_uniform/min"
  op: "Const"
  attr {
    key: "_class"
    value {
      list {
        s: "loc:@conv2d_95/kernel"
      }
    }
  }
  attr {
    key: "dtype"
    value {
      type: DT_FLOAT
    }
  }
  attr {
    key: "value"
    value {
      tensor {
        dtype: DT_FLOAT
        tensor_shape {
        }
        float_val: -0.054554473608732224
      }
    }
  }
}
node {
  name: "conv2d_95/kernel/Initializer/random_uniform/max"
  op: "Const"
  attr {
    key: "_class"
    value {
      list {
        s: "loc:@conv2d_95/kernel"
      }
    }
  }
  attr {
    key: "dtype"
    value {
      type: DT_FLOAT
    }
  }
  attr {
    key: "value"
    value {
      tensor {
        dtype: DT_FLOAT
        tensor_shape {
        }
        float_val: 0.054554473608732224
      }
    }
  }
}
node {
  name: "conv2d_95/kernel/Initializer/random_uniform/RandomUniform"
  op: "RandomUniform"
  input: "conv2d_95/kernel/Initializer/random_uniform/shape"
  attr {
    key: "T"
    value {
      type: DT_INT32
    }
  }
  attr {
    key: "_class"
    value {
      list {
        s: "loc:@conv2d_95/kernel"
      }
    }
  }
  attr {
    key: "dtype"
    value {
      type: DT_FLOAT
    }
  }
  attr {
    key: "seed"
    value {
      i: 0
    }
  }
  attr {
    key: "seed2"
    value {
      i: 0
    }
  }
}
node {
  name: "conv2d_95/kernel/Initializer/random_uniform/sub"
  op: "Sub"
  input: "conv2d_95/kernel/Initializer/random_uniform/max"
  input: "conv2d_95/kernel/Initializer/random_uniform/min"
  attr {
    key: "T"
    value {
      type: DT_FLOAT
    }
  }
  attr {
    key: "_class"
    value {
      list {
        s: "loc:@conv2d_95/kernel"
      }
    }
  }
}
node {
  name: "conv2d_95/kernel/Initializer/random_uniform/mul"
  op: "Mul"
  input: "conv2d_95/kernel/Initializer/random_uniform/RandomUniform"
  input: "conv2d_95/kernel/Initializer/random_uniform/sub"
  attr {
    key: "T"
    value {
      type: DT_FLOAT
    }
  }
  attr {
    key: "_class"
    value {
      list {
        s: "loc:@conv2d_95/kernel"
      }
    }
  }
}
node {
  name: "conv2d_95/kernel/Initializer/random_uniform"
  op: "Add"
  input: "conv2d_95/kernel/Initializer/random_uniform/mul"
  input: "conv2d_95/kernel/Initializer/random_uniform/min"
  attr {
    key: "T"
    value {
      type: DT_FLOAT
    }
  }
  attr {
    key: "_class"
    value {
      list {
        s: "loc:@conv2d_95/kernel"
      }
    }
  }
}
node {
  name: "conv2d_95/kernel"
  op: "VarHandleOp"
  attr {
    key: "_class"
    value {
      list {
        s: "loc:@conv2d_95/kernel"
      }
    }
  }
  attr {
    key: "container"
    value {
      s: ""
    }
  }
  attr {
    key: "dtype"
    value {
      type: DT_FLOAT
    }
  }
  attr {
    key: "shape"
    value {
      shape {
        dim {
          size: 3
        }
        dim {
          size: 3
        }
        dim {
          size: 96
        }
        dim {
          size: 128
        }
      }
    }
  }
  attr {
    key: "shared_name"
    value {
      s: "conv2d_95/kernel"
    }
  }
}
node {
  name: "conv2d_95/kernel/IsInitialized/VarIsInitializedOp"
  op: "VarIsInitializedOp"
  input: "conv2d_95/kernel"
}
node {
  name: "conv2d_95/kernel/Assign"
  op: "AssignVariableOp"
  input: "conv2d_95/kernel"
  input: "conv2d_95/kernel/Initializer/random_uniform"
  attr {
    key: "dtype"
    value {
      type: DT_FLOAT
    }
  }
}
node {
  name: "conv2d_95/kernel/Read/ReadVariableOp"
  op: "ReadVariableOp"
  input: "conv2d_95/kernel"
  attr {
    key: "dtype"
    value {
      type: DT_FLOAT
    }
  }
}
node {
  name: "conv2d_95/bias/Initializer/zeros"
  op: "Const"
  attr {
    key: "_class"
    value {
      list {
        s: "loc:@conv2d_95/bias"
      }
    }
  }
  attr {
    key: "dtype"
    value {
      type: DT_FLOAT
    }
  }
  attr {
    key: "value"
    value {
      tensor {
        dtype: DT_FLOAT
        tensor_shape {
          dim {
            size: 128
          }
        }
        float_val: 0.0
      }
    }
  }
}
node {
  name: "conv2d_95/bias"
  op: "VarHandleOp"
  attr {
    key: "_class"
    value {
      list {
        s: "loc:@conv2d_95/bias"
      }
    }
  }
  attr {
    key: "container"
    value {
      s: ""
    }
  }
  attr {
    key: "dtype"
    value {
      type: DT_FLOAT
    }
  }
  attr {
    key: "shape"
    value {
      shape {
        dim {
          size: 128
        }
      }
    }
  }
  attr {
    key: "shared_name"
    value {
      s: "conv2d_95/bias"
    }
  }
}
node {
  name: "conv2d_95/bias/IsInitialized/VarIsInitializedOp"
  op: "VarIsInitializedOp"
  input: "conv2d_95/bias"
}
node {
  name: "conv2d_95/bias/Assign"
  op: "AssignVariableOp"
  input: "conv2d_95/bias"
  input: "conv2d_95/bias/Initializer/zeros"
  attr {
    key: "dtype"
    value {
      type: DT_FLOAT
    }
  }
}
node {
  name: "conv2d_95/bias/Read/ReadVariableOp"
  op: "ReadVariableOp"
  input: "conv2d_95/bias"
  attr {
    key: "dtype"
    value {
      type: DT_FLOAT
    }
  }
}
node {
  name: "conv2d_95/dilation_rate"
  op: "Const"
  attr {
    key: "dtype"
    value {
      type: DT_INT32
    }
  }
  attr {
    key: "value"
    value {
      tensor {
        dtype: DT_INT32
        tensor_shape {
          dim {
            size: 2
          }
        }
        tensor_content: "\001\000\000\000\001\000\000\000"
      }
    }
  }
}
node {
  name: "conv2d_95/Conv2D/ReadVariableOp"
  op: "ReadVariableOp"
  input: "conv2d_95/kernel"
  attr {
    key: "dtype"
    value {
      type: DT_FLOAT
    }
  }
}
node {
  name: "conv2d_95/Conv2D"
  op: "Conv2D"
  input: "conv2d_94/Relu"
  input: "conv2d_95/Conv2D/ReadVariableOp"
  attr {
    key: "T"
    value {
      type: DT_FLOAT
    }
  }
  attr {
    key: "data_format"
    value {
      s: "NHWC"
    }
  }
  attr {
    key: "dilations"
    value {
      list {
        i: 1
        i: 1
        i: 1
        i: 1
      }
    }
  }
  attr {
    key: "explicit_paddings"
    value {
      list {
      }
    }
  }
  attr {
    key: "padding"
    value {
      s: "SAME"
    }
  }
  attr {
    key: "strides"
    value {
      list {
        i: 1
        i: 1
        i: 1
        i: 1
      }
    }
  }
  attr {
    key: "use_cudnn_on_gpu"
    value {
      b: true
    }
  }
}
node {
  name: "conv2d_95/BiasAdd/ReadVariableOp"
  op: "ReadVariableOp"
  input: "conv2d_95/bias"
  attr {
    key: "dtype"
    value {
      type: DT_FLOAT
    }
  }
}
node {
  name: "conv2d_95/BiasAdd"
  op: "BiasAdd"
  input: "conv2d_95/Conv2D"
  input: "conv2d_95/BiasAdd/ReadVariableOp"
  attr {
    key: "T"
    value {
      type: DT_FLOAT
    }
  }
  attr {
    key: "data_format"
    value {
      s: "NHWC"
    }
  }
}
node {
  name: "conv2d_95/Relu"
  op: "Relu"
  input: "conv2d_95/BiasAdd"
  attr {
    key: "T"
    value {
      type: DT_FLOAT
    }
  }
}
node {
  name: "conv2d_97/kernel/Initializer/random_uniform/shape"
  op: "Const"
  attr {
    key: "_class"
    value {
      list {
        s: "loc:@conv2d_97/kernel"
      }
    }
  }
  attr {
    key: "dtype"
    value {
      type: DT_INT32
    }
  }
  attr {
    key: "value"
    value {
      tensor {
        dtype: DT_INT32
        tensor_shape {
          dim {
            size: 4
          }
        }
        tensor_content: "\005\000\000\000\005\000\000\000\020\000\000\000 \000\000\000"
      }
    }
  }
}
node {
  name: "conv2d_97/kernel/Initializer/random_uniform/min"
  op: "Const"
  attr {
    key: "_class"
    value {
      list {
        s: "loc:@conv2d_97/kernel"
      }
    }
  }
  attr {
    key: "dtype"
    value {
      type: DT_FLOAT
    }
  }
  attr {
    key: "value"
    value {
      tensor {
        dtype: DT_FLOAT
        tensor_shape {
        }
        float_val: -0.0707106813788414
      }
    }
  }
}
node {
  name: "conv2d_97/kernel/Initializer/random_uniform/max"
  op: "Const"
  attr {
    key: "_class"
    value {
      list {
        s: "loc:@conv2d_97/kernel"
      }
    }
  }
  attr {
    key: "dtype"
    value {
      type: DT_FLOAT
    }
  }
  attr {
    key: "value"
    value {
      tensor {
        dtype: DT_FLOAT
        tensor_shape {
        }
        float_val: 0.0707106813788414
      }
    }
  }
}
node {
  name: "conv2d_97/kernel/Initializer/random_uniform/RandomUniform"
  op: "RandomUniform"
  input: "conv2d_97/kernel/Initializer/random_uniform/shape"
  attr {
    key: "T"
    value {
      type: DT_INT32
    }
  }
  attr {
    key: "_class"
    value {
      list {
        s: "loc:@conv2d_97/kernel"
      }
    }
  }
  attr {
    key: "dtype"
    value {
      type: DT_FLOAT
    }
  }
  attr {
    key: "seed"
    value {
      i: 0
    }
  }
  attr {
    key: "seed2"
    value {
      i: 0
    }
  }
}
node {
  name: "conv2d_97/kernel/Initializer/random_uniform/sub"
  op: "Sub"
  input: "conv2d_97/kernel/Initializer/random_uniform/max"
  input: "conv2d_97/kernel/Initializer/random_uniform/min"
  attr {
    key: "T"
    value {
      type: DT_FLOAT
    }
  }
  attr {
    key: "_class"
    value {
      list {
        s: "loc:@conv2d_97/kernel"
      }
    }
  }
}
node {
  name: "conv2d_97/kernel/Initializer/random_uniform/mul"
  op: "Mul"
  input: "conv2d_97/kernel/Initializer/random_uniform/RandomUniform"
  input: "conv2d_97/kernel/Initializer/random_uniform/sub"
  attr {
    key: "T"
    value {
      type: DT_FLOAT
    }
  }
  attr {
    key: "_class"
    value {
      list {
        s: "loc:@conv2d_97/kernel"
      }
    }
  }
}
node {
  name: "conv2d_97/kernel/Initializer/random_uniform"
  op: "Add"
  input: "conv2d_97/kernel/Initializer/random_uniform/mul"
  input: "conv2d_97/kernel/Initializer/random_uniform/min"
  attr {
    key: "T"
    value {
      type: DT_FLOAT
    }
  }
  attr {
    key: "_class"
    value {
      list {
        s: "loc:@conv2d_97/kernel"
      }
    }
  }
}
node {
  name: "conv2d_97/kernel"
  op: "VarHandleOp"
  attr {
    key: "_class"
    value {
      list {
        s: "loc:@conv2d_97/kernel"
      }
    }
  }
  attr {
    key: "container"
    value {
      s: ""
    }
  }
  attr {
    key: "dtype"
    value {
      type: DT_FLOAT
    }
  }
  attr {
    key: "shape"
    value {
      shape {
        dim {
          size: 5
        }
        dim {
          size: 5
        }
        dim {
          size: 16
        }
        dim {
          size: 32
        }
      }
    }
  }
  attr {
    key: "shared_name"
    value {
      s: "conv2d_97/kernel"
    }
  }
}
node {
  name: "conv2d_97/kernel/IsInitialized/VarIsInitializedOp"
  op: "VarIsInitializedOp"
  input: "conv2d_97/kernel"
}
node {
  name: "conv2d_97/kernel/Assign"
  op: "AssignVariableOp"
  input: "conv2d_97/kernel"
  input: "conv2d_97/kernel/Initializer/random_uniform"
  attr {
    key: "dtype"
    value {
      type: DT_FLOAT
    }
  }
}
node {
  name: "conv2d_97/kernel/Read/ReadVariableOp"
  op: "ReadVariableOp"
  input: "conv2d_97/kernel"
  attr {
    key: "dtype"
    value {
      type: DT_FLOAT
    }
  }
}
node {
  name: "conv2d_97/bias/Initializer/zeros"
  op: "Const"
  attr {
    key: "_class"
    value {
      list {
        s: "loc:@conv2d_97/bias"
      }
    }
  }
  attr {
    key: "dtype"
    value {
      type: DT_FLOAT
    }
  }
  attr {
    key: "value"
    value {
      tensor {
        dtype: DT_FLOAT
        tensor_shape {
          dim {
            size: 32
          }
        }
        float_val: 0.0
      }
    }
  }
}
node {
  name: "conv2d_97/bias"
  op: "VarHandleOp"
  attr {
    key: "_class"
    value {
      list {
        s: "loc:@conv2d_97/bias"
      }
    }
  }
  attr {
    key: "container"
    value {
      s: ""
    }
  }
  attr {
    key: "dtype"
    value {
      type: DT_FLOAT
    }
  }
  attr {
    key: "shape"
    value {
      shape {
        dim {
          size: 32
        }
      }
    }
  }
  attr {
    key: "shared_name"
    value {
      s: "conv2d_97/bias"
    }
  }
}
node {
  name: "conv2d_97/bias/IsInitialized/VarIsInitializedOp"
  op: "VarIsInitializedOp"
  input: "conv2d_97/bias"
}
node {
  name: "conv2d_97/bias/Assign"
  op: "AssignVariableOp"
  input: "conv2d_97/bias"
  input: "conv2d_97/bias/Initializer/zeros"
  attr {
    key: "dtype"
    value {
      type: DT_FLOAT
    }
  }
}
node {
  name: "conv2d_97/bias/Read/ReadVariableOp"
  op: "ReadVariableOp"
  input: "conv2d_97/bias"
  attr {
    key: "dtype"
    value {
      type: DT_FLOAT
    }
  }
}
node {
  name: "conv2d_97/dilation_rate"
  op: "Const"
  attr {
    key: "dtype"
    value {
      type: DT_INT32
    }
  }
  attr {
    key: "value"
    value {
      tensor {
        dtype: DT_INT32
        tensor_shape {
          dim {
            size: 2
          }
        }
        tensor_content: "\001\000\000\000\001\000\000\000"
      }
    }
  }
}
node {
  name: "conv2d_97/Conv2D/ReadVariableOp"
  op: "ReadVariableOp"
  input: "conv2d_97/kernel"
  attr {
    key: "dtype"
    value {
      type: DT_FLOAT
    }
  }
}
node {
  name: "conv2d_97/Conv2D"
  op: "Conv2D"
  input: "conv2d_96/Relu"
  input: "conv2d_97/Conv2D/ReadVariableOp"
  attr {
    key: "T"
    value {
      type: DT_FLOAT
    }
  }
  attr {
    key: "data_format"
    value {
      s: "NHWC"
    }
  }
  attr {
    key: "dilations"
    value {
      list {
        i: 1
        i: 1
        i: 1
        i: 1
      }
    }
  }
  attr {
    key: "explicit_paddings"
    value {
      list {
      }
    }
  }
  attr {
    key: "padding"
    value {
      s: "SAME"
    }
  }
  attr {
    key: "strides"
    value {
      list {
        i: 1
        i: 1
        i: 1
        i: 1
      }
    }
  }
  attr {
    key: "use_cudnn_on_gpu"
    value {
      b: true
    }
  }
}
node {
  name: "conv2d_97/BiasAdd/ReadVariableOp"
  op: "ReadVariableOp"
  input: "conv2d_97/bias"
  attr {
    key: "dtype"
    value {
      type: DT_FLOAT
    }
  }
}
node {
  name: "conv2d_97/BiasAdd"
  op: "BiasAdd"
  input: "conv2d_97/Conv2D"
  input: "conv2d_97/BiasAdd/ReadVariableOp"
  attr {
    key: "T"
    value {
      type: DT_FLOAT
    }
  }
  attr {
    key: "data_format"
    value {
      s: "NHWC"
    }
  }
}
node {
  name: "conv2d_97/Relu"
  op: "Relu"
  input: "conv2d_97/BiasAdd"
  attr {
    key: "T"
    value {
      type: DT_FLOAT
    }
  }
}
node {
  name: "max_pooling2d_38/MaxPool"
  op: "MaxPool"
  input: "conv2d_98/Relu"
  attr {
    key: "T"
    value {
      type: DT_FLOAT
    }
  }
  attr {
    key: "data_format"
    value {
      s: "NHWC"
    }
  }
  attr {
    key: "ksize"
    value {
      list {
        i: 1
        i: 3
        i: 3
        i: 1
      }
    }
  }
  attr {
    key: "padding"
    value {
      s: "SAME"
    }
  }
  attr {
    key: "strides"
    value {
      list {
        i: 1
        i: 1
        i: 1
        i: 1
      }
    }
  }
}
node {
  name: "concatenate_12/concat/axis"
  op: "Const"
  attr {
    key: "dtype"
    value {
      type: DT_INT32
    }
  }
  attr {
    key: "value"
    value {
      tensor {
        dtype: DT_INT32
        tensor_shape {
        }
        int_val: 3
      }
    }
  }
}
node {
  name: "concatenate_12/concat"
  op: "ConcatV2"
  input: "conv2d_93/Relu"
  input: "conv2d_95/Relu"
  input: "conv2d_97/Relu"
  input: "max_pooling2d_38/MaxPool"
  input: "concatenate_12/concat/axis"
  attr {
    key: "N"
    value {
      i: 4
    }
  }
  attr {
    key: "T"
    value {
      type: DT_FLOAT
    }
  }
  attr {
    key: "Tidx"
    value {
      type: DT_INT32
    }
  }
}
node {
  name: "zero_padding2d_26/Pad/paddings"
  op: "Const"
  attr {
    key: "dtype"
    value {
      type: DT_INT32
    }
  }
  attr {
    key: "value"
    value {
      tensor {
        dtype: DT_INT32
        tensor_shape {
          dim {
            size: 4
          }
          dim {
            size: 2
          }
        }
        tensor_content: "…"
      }
    }
  }
}
node {
  name: "zero_padding2d_26/Pad"
  op: "Pad"
  input: "concatenate_12/concat"
  input: "zero_padding2d_26/Pad/paddings"
  attr {
    key: "T"
    value {
      type: DT_FLOAT
    }
  }
  attr {
    key: "Tpaddings"
    value {
      type: DT_INT32
    }
  }
}
node {
  name: "max_pooling2d_39/MaxPool"
  op: "MaxPool"
  input: "zero_padding2d_26/Pad"
  attr {
    key: "T"
    value {
      type: DT_FLOAT
    }
  }
  attr {
    key: "data_format"
    value {
      s: "NHWC"
    }
  }
  attr {
    key: "ksize"
    value {
      list {
        i: 1
        i: 3
        i: 3
        i: 1
      }
    }
  }
  attr {
    key: "padding"
    value {
      s: "VALID"
    }
  }
  attr {
    key: "strides"
    value {
      list {
        i: 1
        i: 2
        i: 2
        i: 1
      }
    }
  }
}
node {
  name: "conv2d_100/kernel/Initializer/random_uniform/shape"
  op: "Const"
  attr {
    key: "_class"
    value {
      list {
        s: "loc:@conv2d_100/kernel"
      }
    }
  }
  attr {
    key: "dtype"
    value {
      type: DT_INT32
    }
  }
  attr {
    key: "value"
    value {
      tensor {
        dtype: DT_INT32
        tensor_shape {
          dim {
            size: 4
          }
        }
        tensor_content: "\001\000\000\000\001\000\000\000\000\001\000\000`\000\000\000"
      }
    }
  }
}
node {
  name: "conv2d_100/kernel/Initializer/random_uniform/min"
  op: "Const"
  attr {
    key: "_class"
    value {
      list {
        s: "loc:@conv2d_100/kernel"
      }
    }
  }
  attr {
    key: "dtype"
    value {
      type: DT_FLOAT
    }
  }
  attr {
    key: "value"
    value {
      tensor {
        dtype: DT_FLOAT
        tensor_shape {
        }
        float_val: -0.13055823743343353
      }
    }
  }
}
node {
  name: "conv2d_100/kernel/Initializer/random_uniform/max"
  op: "Const"
  attr {
    key: "_class"
    value {
      list {
        s: "loc:@conv2d_100/kernel"
      }
    }
  }
  attr {
    key: "dtype"
    value {
      type: DT_FLOAT
    }
  }
  attr {
    key: "value"
    value {
      tensor {
        dtype: DT_FLOAT
        tensor_shape {
        }
        float_val: 0.13055823743343353
      }
    }
  }
}
node {
  name: "conv2d_100/kernel/Initializer/random_uniform/RandomUniform"
  op: "RandomUniform"
  input: "conv2d_100/kernel/Initializer/random_uniform/shape"
  attr {
    key: "T"
    value {
      type: DT_INT32
    }
  }
  attr {
    key: "_class"
    value {
      list {
        s: "loc:@conv2d_100/kernel"
      }
    }
  }
  attr {
    key: "dtype"
    value {
      type: DT_FLOAT
    }
  }
  attr {
    key: "seed"
    value {
      i: 0
    }
  }
  attr {
    key: "seed2"
    value {
      i: 0
    }
  }
}
node {
  name: "conv2d_100/kernel/Initializer/random_uniform/sub"
  op: "Sub"
  input: "conv2d_100/kernel/Initializer/random_uniform/max"
  input: "conv2d_100/kernel/Initializer/random_uniform/min"
  attr {
    key: "T"
    value {
      type: DT_FLOAT
    }
  }
  attr {
    key: "_class"
    value {
      list {
        s: "loc:@conv2d_100/kernel"
      }
    }
  }
}
node {
  name: "conv2d_100/kernel/Initializer/random_uniform/mul"
  op: "Mul"
  input: "conv2d_100/kernel/Initializer/random_uniform/RandomUniform"
  input: "conv2d_100/kernel/Initializer/random_uniform/sub"
  attr {
    key: "T"
    value {
      type: DT_FLOAT
    }
  }
  attr {
    key: "_class"
    value {
      list {
        s: "loc:@conv2d_100/kernel"
      }
    }
  }
}
node {
  name: "conv2d_100/kernel/Initializer/random_uniform"
  op: "Add"
  input: "conv2d_100/kernel/Initializer/random_uniform/mul"
  input: "conv2d_100/kernel/Initializer/random_uniform/min"
  attr {
    key: "T"
    value {
      type: DT_FLOAT
    }
  }
  attr {
    key: "_class"
    value {
      list {
        s: "loc:@conv2d_100/kernel"
      }
    }
  }
}
node {
  name: "conv2d_100/kernel"
  op: "VarHandleOp"
  attr {
    key: "_class"
    value {
      list {
        s: "loc:@conv2d_100/kernel"
      }
    }
  }
  attr {
    key: "container"
    value {
      s: ""
    }
  }
  attr {
    key: "dtype"
    value {
      type: DT_FLOAT
    }
  }
  attr {
    key: "shape"
    value {
      shape {
        dim {
          size: 1
        }
        dim {
          size: 1
        }
        dim {
          size: 256
        }
        dim {
          size: 96
        }
      }
    }
  }
  attr {
    key: "shared_name"
    value {
      s: "conv2d_100/kernel"
    }
  }
}
node {
  name: "conv2d_100/kernel/IsInitialized/VarIsInitializedOp"
  op: "VarIsInitializedOp"
  input: "conv2d_100/kernel"
}
node {
  name: "conv2d_100/kernel/Assign"
  op: "AssignVariableOp"
  input: "conv2d_100/kernel"
  input: "conv2d_100/kernel/Initializer/random_uniform"
  attr {
    key: "dtype"
    value {
      type: DT_FLOAT
    }
  }
}
node {
  name: "conv2d_100/kernel/Read/ReadVariableOp"
  op: "ReadVariableOp"
  input: "conv2d_100/kernel"
  attr {
    key: "dtype"
    value {
      type: DT_FLOAT
    }
  }
}
node {
  name: "conv2d_100/bias/Initializer/zeros"
  op: "Const"
  attr {
    key: "_class"
    value {
      list {
        s: "loc:@conv2d_100/bias"
      }
    }
  }
  attr {
    key: "dtype"
    value {
      type: DT_FLOAT
    }
  }
  attr {
    key: "value"
    value {
      tensor {
        dtype: DT_FLOAT
        tensor_shape {
          dim {
            size: 96
          }
        }
        float_val: 0.0
      }
    }
  }
}
node {
  name: "conv2d_100/bias"
  op: "VarHandleOp"
  attr {
    key: "_class"
    value {
      list {
        s: "loc:@conv2d_100/bias"
      }
    }
  }
  attr {
    key: "container"
    value {
      s: ""
    }
  }
  attr {
    key: "dtype"
    value {
      type: DT_FLOAT
    }
  }
  attr {
    key: "shape"
    value {
      shape {
        dim {
          size: 96
        }
      }
    }
  }
  attr {
    key: "shared_name"
    value {
      s: "conv2d_100/bias"
    }
  }
}
node {
  name: "conv2d_100/bias/IsInitialized/VarIsInitializedOp"
  op: "VarIsInitializedOp"
  input: "conv2d_100/bias"
}
node {
  name: "conv2d_100/bias/Assign"
  op: "AssignVariableOp"
  input: "conv2d_100/bias"
  input: "conv2d_100/bias/Initializer/zeros"
  attr {
    key: "dtype"
    value {
      type: DT_FLOAT
    }
  }
}
node {
  name: "conv2d_100/bias/Read/ReadVariableOp"
  op: "ReadVariableOp"
  input: "conv2d_100/bias"
  attr {
    key: "dtype"
    value {
      type: DT_FLOAT
    }
  }
}
node {
  name: "conv2d_100/dilation_rate"
  op: "Const"
  attr {
    key: "dtype"
    value {
      type: DT_INT32
    }
  }
  attr {
    key: "value"
    value {
      tensor {
        dtype: DT_INT32
        tensor_shape {
          dim {
            size: 2
          }
        }
        tensor_content: "\001\000\000\000\001\000\000\000"
      }
    }
  }
}
node {
  name: "conv2d_100/Conv2D/ReadVariableOp"
  op: "ReadVariableOp"
  input: "conv2d_100/kernel"
  attr {
    key: "dtype"
    value {
      type: DT_FLOAT
    }
  }
}
node {
  name: "conv2d_100/Conv2D"
  op: "Conv2D"
  input: "max_pooling2d_39/MaxPool"
  input: "conv2d_100/Conv2D/ReadVariableOp"
  attr {
    key: "T"
    value {
      type: DT_FLOAT
    }
  }
  attr {
    key: "data_format"
    value {
      s: "NHWC"
    }
  }
  attr {
    key: "dilations"
    value {
      list {
        i: 1
        i: 1
        i: 1
        i: 1
      }
    }
  }
  attr {
    key: "explicit_paddings"
    value {
      list {
      }
    }
  }
  attr {
    key: "padding"
    value {
      s: "VALID"
    }
  }
  attr {
    key: "strides"
    value {
      list {
        i: 1
        i: 1
        i: 1
        i: 1
      }
    }
  }
  attr {
    key: "use_cudnn_on_gpu"
    value {
      b: true
    }
  }
}
node {
  name: "conv2d_100/BiasAdd/ReadVariableOp"
  op: "ReadVariableOp"
  input: "conv2d_100/bias"
  attr {
    key: "dtype"
    value {
      type: DT_FLOAT
    }
  }
}
node {
  name: "conv2d_100/BiasAdd"
  op: "BiasAdd"
  input: "conv2d_100/Conv2D"
  input: "conv2d_100/BiasAdd/ReadVariableOp"
  attr {
    key: "T"
    value {
      type: DT_FLOAT
    }
  }
  attr {
    key: "data_format"
    value {
      s: "NHWC"
    }
  }
}
node {
  name: "conv2d_100/Relu"
  op: "Relu"
  input: "conv2d_100/BiasAdd"
  attr {
    key: "T"
    value {
      type: DT_FLOAT
    }
  }
}
node {
  name: "conv2d_102/kernel/Initializer/random_uniform/shape"
  op: "Const"
  attr {
    key: "_class"
    value {
      list {
        s: "loc:@conv2d_102/kernel"
      }
    }
  }
  attr {
    key: "dtype"
    value {
      type: DT_INT32
    }
  }
  attr {
    key: "value"
    value {
      tensor {
        dtype: DT_INT32
        tensor_shape {
          dim {
            size: 4
          }
        }
        tensor_content: "\001\000\000\000\001\000\000\000\000\001\000\000\020\000\000\000"
      }
    }
  }
}
node {
  name: "conv2d_102/kernel/Initializer/random_uniform/min"
  op: "Const"
  attr {
    key: "_class"
    value {
      list {
        s: "loc:@conv2d_102/kernel"
      }
    }
  }
  attr {
    key: "dtype"
    value {
      type: DT_FLOAT
    }
  }
  attr {
    key: "value"
    value {
      tensor {
        dtype: DT_FLOAT
        tensor_shape {
        }
        float_val: -0.14852213859558105
      }
    }
  }
}
node {
  name: "conv2d_102/kernel/Initializer/random_uniform/max"
  op: "Const"
  attr {
    key: "_class"
    value {
      list {
        s: "loc:@conv2d_102/kernel"
      }
    }
  }
  attr {
    key: "dtype"
    value {
      type: DT_FLOAT
    }
  }
  attr {
    key: "value"
    value {
      tensor {
        dtype: DT_FLOAT
        tensor_shape {
        }
        float_val: 0.14852213859558105
      }
    }
  }
}
node {
  name: "conv2d_102/kernel/Initializer/random_uniform/RandomUniform"
  op: "RandomUniform"
  input: "conv2d_102/kernel/Initializer/random_uniform/shape"
  attr {
    key: "T"
    value {
      type: DT_INT32
    }
  }
  attr {
    key: "_class"
    value {
      list {
        s: "loc:@conv2d_102/kernel"
      }
    }
  }
  attr {
    key: "dtype"
    value {
      type: DT_FLOAT
    }
  }
  attr {
    key: "seed"
    value {
      i: 0
    }
  }
  attr {
    key: "seed2"
    value {
      i: 0
    }
  }
}
node {
  name: "conv2d_102/kernel/Initializer/random_uniform/sub"
  op: "Sub"
  input: "conv2d_102/kernel/Initializer/random_uniform/max"
  input: "conv2d_102/kernel/Initializer/random_uniform/min"
  attr {
    key: "T"
    value {
      type: DT_FLOAT
    }
  }
  attr {
    key: "_class"
    value {
      list {
        s: "loc:@conv2d_102/kernel"
      }
    }
  }
}
node {
  name: "conv2d_102/kernel/Initializer/random_uniform/mul"
  op: "Mul"
  input: "conv2d_102/kernel/Initializer/random_uniform/RandomUniform"
  input: "conv2d_102/kernel/Initializer/random_uniform/sub"
  attr {
    key: "T"
    value {
      type: DT_FLOAT
    }
  }
  attr {
    key: "_class"
    value {
      list {
        s: "loc:@conv2d_102/kernel"
      }
    }
  }
}
node {
  name: "conv2d_102/kernel/Initializer/random_uniform"
  op: "Add"
  input: "conv2d_102/kernel/Initializer/random_uniform/mul"
  input: "conv2d_102/kernel/Initializer/random_uniform/min"
  attr {
    key: "T"
    value {
      type: DT_FLOAT
    }
  }
  attr {
    key: "_class"
    value {
      list {
        s: "loc:@conv2d_102/kernel"
      }
    }
  }
}
node {
  name: "conv2d_102/kernel"
  op: "VarHandleOp"
  attr {
    key: "_class"
    value {
      list {
        s: "loc:@conv2d_102/kernel"
      }
    }
  }
  attr {
    key: "container"
    value {
      s: ""
    }
  }
  attr {
    key: "dtype"
    value {
      type: DT_FLOAT
    }
  }
  attr {
    key: "shape"
    value {
      shape {
        dim {
          size: 1
        }
        dim {
          size: 1
        }
        dim {
          size: 256
        }
        dim {
          size: 16
        }
      }
    }
  }
  attr {
    key: "shared_name"
    value {
      s: "conv2d_102/kernel"
    }
  }
}
node {
  name: "conv2d_102/kernel/IsInitialized/VarIsInitializedOp"
  op: "VarIsInitializedOp"
  input: "conv2d_102/kernel"
}
node {
  name: "conv2d_102/kernel/Assign"
  op: "AssignVariableOp"
  input: "conv2d_102/kernel"
  input: "conv2d_102/kernel/Initializer/random_uniform"
  attr {
    key: "dtype"
    value {
      type: DT_FLOAT
    }
  }
}
node {
  name: "conv2d_102/kernel/Read/ReadVariableOp"
  op: "ReadVariableOp"
  input: "conv2d_102/kernel"
  attr {
    key: "dtype"
    value {
      type: DT_FLOAT
    }
  }
}
node {
  name: "conv2d_102/bias/Initializer/zeros"
  op: "Const"
  attr {
    key: "_class"
    value {
      list {
        s: "loc:@conv2d_102/bias"
      }
    }
  }
  attr {
    key: "dtype"
    value {
      type: DT_FLOAT
    }
  }
  attr {
    key: "value"
    value {
      tensor {
        dtype: DT_FLOAT
        tensor_shape {
          dim {
            size: 16
          }
        }
        float_val: 0.0
      }
    }
  }
}
node {
  name: "conv2d_102/bias"
  op: "VarHandleOp"
  attr {
    key: "_class"
    value {
      list {
        s: "loc:@conv2d_102/bias"
      }
    }
  }
  attr {
    key: "container"
    value {
      s: ""
    }
  }
  attr {
    key: "dtype"
    value {
      type: DT_FLOAT
    }
  }
  attr {
    key: "shape"
    value {
      shape {
        dim {
          size: 16
        }
      }
    }
  }
  attr {
    key: "shared_name"
    value {
      s: "conv2d_102/bias"
    }
  }
}
node {
  name: "conv2d_102/bias/IsInitialized/VarIsInitializedOp"
  op: "VarIsInitializedOp"
  input: "conv2d_102/bias"
}
node {
  name: "conv2d_102/bias/Assign"
  op: "AssignVariableOp"
  input: "conv2d_102/bias"
  input: "conv2d_102/bias/Initializer/zeros"
  attr {
    key: "dtype"
    value {
      type: DT_FLOAT
    }
  }
}
node {
  name: "conv2d_102/bias/Read/ReadVariableOp"
  op: "ReadVariableOp"
  input: "conv2d_102/bias"
  attr {
    key: "dtype"
    value {
      type: DT_FLOAT
    }
  }
}
node {
  name: "conv2d_102/dilation_rate"
  op: "Const"
  attr {
    key: "dtype"
    value {
      type: DT_INT32
    }
  }
  attr {
    key: "value"
    value {
      tensor {
        dtype: DT_INT32
        tensor_shape {
          dim {
            size: 2
          }
        }
        tensor_content: "\001\000\000\000\001\000\000\000"
      }
    }
  }
}
node {
  name: "conv2d_102/Conv2D/ReadVariableOp"
  op: "ReadVariableOp"
  input: "conv2d_102/kernel"
  attr {
    key: "dtype"
    value {
      type: DT_FLOAT
    }
  }
}
node {
  name: "conv2d_102/Conv2D"
  op: "Conv2D"
  input: "max_pooling2d_39/MaxPool"
  input: "conv2d_102/Conv2D/ReadVariableOp"
  attr {
    key: "T"
    value {
      type: DT_FLOAT
    }
  }
  attr {
    key: "data_format"
    value {
      s: "NHWC"
    }
  }
  attr {
    key: "dilations"
    value {
      list {
        i: 1
        i: 1
        i: 1
        i: 1
      }
    }
  }
  attr {
    key: "explicit_paddings"
    value {
      list {
      }
    }
  }
  attr {
    key: "padding"
    value {
      s: "VALID"
    }
  }
  attr {
    key: "strides"
    value {
      list {
        i: 1
        i: 1
        i: 1
        i: 1
      }
    }
  }
  attr {
    key: "use_cudnn_on_gpu"
    value {
      b: true
    }
  }
}
node {
  name: "conv2d_102/BiasAdd/ReadVariableOp"
  op: "ReadVariableOp"
  input: "conv2d_102/bias"
  attr {
    key: "dtype"
    value {
      type: DT_FLOAT
    }
  }
}
node {
  name: "conv2d_102/BiasAdd"
  op: "BiasAdd"
  input: "conv2d_102/Conv2D"
  input: "conv2d_102/BiasAdd/ReadVariableOp"
  attr {
    key: "T"
    value {
      type: DT_FLOAT
    }
  }
  attr {
    key: "data_format"
    value {
      s: "NHWC"
    }
  }
}
node {
  name: "conv2d_102/Relu"
  op: "Relu"
  input: "conv2d_102/BiasAdd"
  attr {
    key: "T"
    value {
      type: DT_FLOAT
    }
  }
}
node {
  name: "conv2d_104/kernel/Initializer/random_uniform/shape"
  op: "Const"
  attr {
    key: "_class"
    value {
      list {
        s: "loc:@conv2d_104/kernel"
      }
    }
  }
  attr {
    key: "dtype"
    value {
      type: DT_INT32
    }
  }
  attr {
    key: "value"
    value {
      tensor {
        dtype: DT_INT32
        tensor_shape {
          dim {
            size: 4
          }
        }
        tensor_content: "\001\000\000\000\001\000\000\000\000\001\000\000@\000\000\000"
      }
    }
  }
}
node {
  name: "conv2d_104/kernel/Initializer/random_uniform/min"
  op: "Const"
  attr {
    key: "_class"
    value {
      list {
        s: "loc:@conv2d_104/kernel"
      }
    }
  }
  attr {
    key: "dtype"
    value {
      type: DT_FLOAT
    }
  }
  attr {
    key: "value"
    value {
      tensor {
        dtype: DT_FLOAT
        tensor_shape {
        }
        float_val: -0.1369306445121765
      }
    }
  }
}
node {
  name: "conv2d_104/kernel/Initializer/random_uniform/max"
  op: "Const"
  attr {
    key: "_class"
    value {
      list {
        s: "loc:@conv2d_104/kernel"
      }
    }
  }
  attr {
    key: "dtype"
    value {
      type: DT_FLOAT
    }
  }
  attr {
    key: "value"
    value {
      tensor {
        dtype: DT_FLOAT
        tensor_shape {
        }
        float_val: 0.1369306445121765
      }
    }
  }
}
node {
  name: "conv2d_104/kernel/Initializer/random_uniform/RandomUniform"
  op: "RandomUniform"
  input: "conv2d_104/kernel/Initializer/random_uniform/shape"
  attr {
    key: "T"
    value {
      type: DT_INT32
    }
  }
  attr {
    key: "_class"
    value {
      list {
        s: "loc:@conv2d_104/kernel"
      }
    }
  }
  attr {
    key: "dtype"
    value {
      type: DT_FLOAT
    }
  }
  attr {
    key: "seed"
    value {
      i: 0
    }
  }
  attr {
    key: "seed2"
    value {
      i: 0
    }
  }
}
node {
  name: "conv2d_104/kernel/Initializer/random_uniform/sub"
  op: "Sub"
  input: "conv2d_104/kernel/Initializer/random_uniform/max"
  input: "conv2d_104/kernel/Initializer/random_uniform/min"
  attr {
    key: "T"
    value {
      type: DT_FLOAT
    }
  }
  attr {
    key: "_class"
    value {
      list {
        s: "loc:@conv2d_104/kernel"
      }
    }
  }
}
node {
  name: "conv2d_104/kernel/Initializer/random_uniform/mul"
  op: "Mul"
  input: "conv2d_104/kernel/Initializer/random_uniform/RandomUniform"
  input: "conv2d_104/kernel/Initializer/random_uniform/sub"
  attr {
    key: "T"
    value {
      type: DT_FLOAT
    }
  }
  attr {
    key: "_class"
    value {
      list {
        s: "loc:@conv2d_104/kernel"
      }
    }
  }
}
node {
  name: "conv2d_104/kernel/Initializer/random_uniform"
  op: "Add"
  input: "conv2d_104/kernel/Initializer/random_uniform/mul"
  input: "conv2d_104/kernel/Initializer/random_uniform/min"
  attr {
    key: "T"
    value {
      type: DT_FLOAT
    }
  }
  attr {
    key: "_class"
    value {
      list {
        s: "loc:@conv2d_104/kernel"
      }
    }
  }
}
node {
  name: "conv2d_104/kernel"
  op: "VarHandleOp"
  attr {
    key: "_class"
    value {
      list {
        s: "loc:@conv2d_104/kernel"
      }
    }
  }
  attr {
    key: "container"
    value {
      s: ""
    }
  }
  attr {
    key: "dtype"
    value {
      type: DT_FLOAT
    }
  }
  attr {
    key: "shape"
    value {
      shape {
        dim {
          size: 1
        }
        dim {
          size: 1
        }
        dim {
          size: 256
        }
        dim {
          size: 64
        }
      }
    }
  }
  attr {
    key: "shared_name"
    value {
      s: "conv2d_104/kernel"
    }
  }
}
node {
  name: "conv2d_104/kernel/IsInitialized/VarIsInitializedOp"
  op: "VarIsInitializedOp"
  input: "conv2d_104/kernel"
}
node {
  name: "conv2d_104/kernel/Assign"
  op: "AssignVariableOp"
  input: "conv2d_104/kernel"
  input: "conv2d_104/kernel/Initializer/random_uniform"
  attr {
    key: "dtype"
    value {
      type: DT_FLOAT
    }
  }
}
node {
  name: "conv2d_104/kernel/Read/ReadVariableOp"
  op: "ReadVariableOp"
  input: "conv2d_104/kernel"
  attr {
    key: "dtype"
    value {
      type: DT_FLOAT
    }
  }
}
node {
  name: "conv2d_104/bias/Initializer/zeros"
  op: "Const"
  attr {
    key: "_class"
    value {
      list {
        s: "loc:@conv2d_104/bias"
      }
    }
  }
  attr {
    key: "dtype"
    value {
      type: DT_FLOAT
    }
  }
  attr {
    key: "value"
    value {
      tensor {
        dtype: DT_FLOAT
        tensor_shape {
          dim {
            size: 64
          }
        }
        float_val: 0.0
      }
    }
  }
}
node {
  name: "conv2d_104/bias"
  op: "VarHandleOp"
  attr {
    key: "_class"
    value {
      list {
        s: "loc:@conv2d_104/bias"
      }
    }
  }
  attr {
    key: "container"
    value {
      s: ""
    }
  }
  attr {
    key: "dtype"
    value {
      type: DT_FLOAT
    }
  }
  attr {
    key: "shape"
    value {
      shape {
        dim {
          size: 64
        }
      }
    }
  }
  attr {
    key: "shared_name"
    value {
      s: "conv2d_104/bias"
    }
  }
}
node {
  name: "conv2d_104/bias/IsInitialized/VarIsInitializedOp"
  op: "VarIsInitializedOp"
  input: "conv2d_104/bias"
}
node {
  name: "conv2d_104/bias/Assign"
  op: "AssignVariableOp"
  input: "conv2d_104/bias"
  input: "conv2d_104/bias/Initializer/zeros"
  attr {
    key: "dtype"
    value {
      type: DT_FLOAT
    }
  }
}
node {
  name: "conv2d_104/bias/Read/ReadVariableOp"
  op: "ReadVariableOp"
  input: "conv2d_104/bias"
  attr {
    key: "dtype"
    value {
      type: DT_FLOAT
    }
  }
}
node {
  name: "conv2d_104/dilation_rate"
  op: "Const"
  attr {
    key: "dtype"
    value {
      type: DT_INT32
    }
  }
  attr {
    key: "value"
    value {
      tensor {
        dtype: DT_INT32
        tensor_shape {
          dim {
            size: 2
          }
        }
        tensor_content: "\001\000\000\000\001\000\000\000"
      }
    }
  }
}
node {
  name: "conv2d_104/Conv2D/ReadVariableOp"
  op: "ReadVariableOp"
  input: "conv2d_104/kernel"
  attr {
    key: "dtype"
    value {
      type: DT_FLOAT
    }
  }
}
node {
  name: "conv2d_104/Conv2D"
  op: "Conv2D"
  input: "max_pooling2d_39/MaxPool"
  input: "conv2d_104/Conv2D/ReadVariableOp"
  attr {
    key: "T"
    value {
      type: DT_FLOAT
    }
  }
  attr {
    key: "data_format"
    value {
      s: "NHWC"
    }
  }
  attr {
    key: "dilations"
    value {
      list {
        i: 1
        i: 1
        i: 1
        i: 1
      }
    }
  }
  attr {
    key: "explicit_paddings"
    value {
      list {
      }
    }
  }
  attr {
    key: "padding"
    value {
      s: "VALID"
    }
  }
  attr {
    key: "strides"
    value {
      list {
        i: 1
        i: 1
        i: 1
        i: 1
      }
    }
  }
  attr {
    key: "use_cudnn_on_gpu"
    value {
      b: true
    }
  }
}
node {
  name: "conv2d_104/BiasAdd/ReadVariableOp"
  op: "ReadVariableOp"
  input: "conv2d_104/bias"
  attr {
    key: "dtype"
    value {
      type: DT_FLOAT
    }
  }
}
node {
  name: "conv2d_104/BiasAdd"
  op: "BiasAdd"
  input: "conv2d_104/Conv2D"
  input: "conv2d_104/BiasAdd/ReadVariableOp"
  attr {
    key: "T"
    value {
      type: DT_FLOAT
    }
  }
  attr {
    key: "data_format"
    value {
      s: "NHWC"
    }
  }
}
node {
  name: "conv2d_104/Relu"
  op: "Relu"
  input: "conv2d_104/BiasAdd"
  attr {
    key: "T"
    value {
      type: DT_FLOAT
    }
  }
}
node {
  name: "conv2d_99/kernel/Initializer/random_uniform/shape"
  op: "Const"
  attr {
    key: "_class"
    value {
      list {
        s: "loc:@conv2d_99/kernel"
      }
    }
  }
  attr {
    key: "dtype"
    value {
      type: DT_INT32
    }
  }
  attr {
    key: "value"
    value {
      tensor {
        dtype: DT_INT32
        tensor_shape {
          dim {
            size: 4
          }
        }
        tensor_content: "\001\000\000\000\001\000\000\000\000\001\000\000\300\000\000\000"
      }
    }
  }
}
node {
  name: "conv2d_99/kernel/Initializer/random_uniform/min"
  op: "Const"
  attr {
    key: "_class"
    value {
      list {
        s: "loc:@conv2d_99/kernel"
      }
    }
  }
  attr {
    key: "dtype"
    value {
      type: DT_FLOAT
    }
  }
  attr {
    key: "value"
    value {
      tensor {
        dtype: DT_FLOAT
        tensor_shape {
        }
        float_val: -0.1157275140285492
      }
    }
  }
}
node {
  name: "conv2d_99/kernel/Initializer/random_uniform/max"
  op: "Const"
  attr {
    key: "_class"
    value {
      list {
        s: "loc:@conv2d_99/kernel"
      }
    }
  }
  attr {
    key: "dtype"
    value {
      type: DT_FLOAT
    }
  }
  attr {
    key: "value"
    value {
      tensor {
        dtype: DT_FLOAT
        tensor_shape {
        }
        float_val: 0.1157275140285492
      }
    }
  }
}
node {
  name: "conv2d_99/kernel/Initializer/random_uniform/RandomUniform"
  op: "RandomUniform"
  input: "conv2d_99/kernel/Initializer/random_uniform/shape"
  attr {
    key: "T"
    value {
      type: DT_INT32
    }
  }
  attr {
    key: "_class"
    value {
      list {
        s: "loc:@conv2d_99/kernel"
      }
    }
  }
  attr {
    key: "dtype"
    value {
      type: DT_FLOAT
    }
  }
  attr {
    key: "seed"
    value {
      i: 0
    }
  }
  attr {
    key: "seed2"
    value {
      i: 0
    }
  }
}
node {
  name: "conv2d_99/kernel/Initializer/random_uniform/sub"
  op: "Sub"
  input: "conv2d_99/kernel/Initializer/random_uniform/max"
  input: "conv2d_99/kernel/Initializer/random_uniform/min"
  attr {
    key: "T"
    value {
      type: DT_FLOAT
    }
  }
  attr {
    key: "_class"
    value {
      list {
        s: "loc:@conv2d_99/kernel"
      }
    }
  }
}
node {
  name: "conv2d_99/kernel/Initializer/random_uniform/mul"
  op: "Mul"
  input: "conv2d_99/kernel/Initializer/random_uniform/RandomUniform"
  input: "conv2d_99/kernel/Initializer/random_uniform/sub"
  attr {
    key: "T"
    value {
      type: DT_FLOAT
    }
  }
  attr {
    key: "_class"
    value {
      list {
        s: "loc:@conv2d_99/kernel"
      }
    }
  }
}
node {
  name: "conv2d_99/kernel/Initializer/random_uniform"
  op: "Add"
  input: "conv2d_99/kernel/Initializer/random_uniform/mul"
  input: "conv2d_99/kernel/Initializer/random_uniform/min"
  attr {
    key: "T"
    value {
      type: DT_FLOAT
    }
  }
  attr {
    key: "_class"
    value {
      list {
        s: "loc:@conv2d_99/kernel"
      }
    }
  }
}
node {
  name: "conv2d_99/kernel"
  op: "VarHandleOp"
  attr {
    key: "_class"
    value {
      list {
        s: "loc:@conv2d_99/kernel"
      }
    }
  }
  attr {
    key: "container"
    value {
      s: ""
    }
  }
  attr {
    key: "dtype"
    value {
      type: DT_FLOAT
    }
  }
  attr {
    key: "shape"
    value {
      shape {
        dim {
          size: 1
        }
        dim {
          size: 1
        }
        dim {
          size: 256
        }
        dim {
          size: 192
        }
      }
    }
  }
  attr {
    key: "shared_name"
    value {
      s: "conv2d_99/kernel"
    }
  }
}
node {
  name: "conv2d_99/kernel/IsInitialized/VarIsInitializedOp"
  op: "VarIsInitializedOp"
  input: "conv2d_99/kernel"
}
node {
  name: "conv2d_99/kernel/Assign"
  op: "AssignVariableOp"
  input: "conv2d_99/kernel"
  input: "conv2d_99/kernel/Initializer/random_uniform"
  attr {
    key: "dtype"
    value {
      type: DT_FLOAT
    }
  }
}
node {
  name: "conv2d_99/kernel/Read/ReadVariableOp"
  op: "ReadVariableOp"
  input: "conv2d_99/kernel"
  attr {
    key: "dtype"
    value {
      type: DT_FLOAT
    }
  }
}
node {
  name: "conv2d_99/bias/Initializer/zeros"
  op: "Const"
  attr {
    key: "_class"
    value {
      list {
        s: "loc:@conv2d_99/bias"
      }
    }
  }
  attr {
    key: "dtype"
    value {
      type: DT_FLOAT
    }
  }
  attr {
    key: "value"
    value {
      tensor {
        dtype: DT_FLOAT
        tensor_shape {
          dim {
            size: 192
          }
        }
        float_val: 0.0
      }
    }
  }
}
node {
  name: "conv2d_99/bias"
  op: "VarHandleOp"
  attr {
    key: "_class"
    value {
      list {
        s: "loc:@conv2d_99/bias"
      }
    }
  }
  attr {
    key: "container"
    value {
      s: ""
    }
  }
  attr {
    key: "dtype"
    value {
      type: DT_FLOAT
    }
  }
  attr {
    key: "shape"
    value {
      shape {
        dim {
          size: 192
        }
      }
    }
  }
  attr {
    key: "shared_name"
    value {
      s: "conv2d_99/bias"
    }
  }
}
node {
  name: "conv2d_99/bias/IsInitialized/VarIsInitializedOp"
  op: "VarIsInitializedOp"
  input: "conv2d_99/bias"
}
node {
  name: "conv2d_99/bias/Assign"
  op: "AssignVariableOp"
  input: "conv2d_99/bias"
  input: "conv2d_99/bias/Initializer/zeros"
  attr {
    key: "dtype"
    value {
      type: DT_FLOAT
    }
  }
}
node {
  name: "conv2d_99/bias/Read/ReadVariableOp"
  op: "ReadVariableOp"
  input: "conv2d_99/bias"
  attr {
    key: "dtype"
    value {
      type: DT_FLOAT
    }
  }
}
node {
  name: "conv2d_99/dilation_rate"
  op: "Const"
  attr {
    key: "dtype"
    value {
      type: DT_INT32
    }
  }
  attr {
    key: "value"
    value {
      tensor {
        dtype: DT_INT32
        tensor_shape {
          dim {
            size: 2
          }
        }
        tensor_content: "\001\000\000\000\001\000\000\000"
      }
    }
  }
}
node {
  name: "conv2d_99/Conv2D/ReadVariableOp"
  op: "ReadVariableOp"
  input: "conv2d_99/kernel"
  attr {
    key: "dtype"
    value {
      type: DT_FLOAT
    }
  }
}
node {
  name: "conv2d_99/Conv2D"
  op: "Conv2D"
  input: "max_pooling2d_39/MaxPool"
  input: "conv2d_99/Conv2D/ReadVariableOp"
  attr {
    key: "T"
    value {
      type: DT_FLOAT
    }
  }
  attr {
    key: "data_format"
    value {
      s: "NHWC"
    }
  }
  attr {
    key: "dilations"
    value {
      list {
        i: 1
        i: 1
        i: 1
        i: 1
      }
    }
  }
  attr {
    key: "explicit_paddings"
    value {
      list {
      }
    }
  }
  attr {
    key: "padding"
    value {
      s: "VALID"
    }
  }
  attr {
    key: "strides"
    value {
      list {
        i: 1
        i: 1
        i: 1
        i: 1
      }
    }
  }
  attr {
    key: "use_cudnn_on_gpu"
    value {
      b: true
    }
  }
}
node {
  name: "conv2d_99/BiasAdd/ReadVariableOp"
  op: "ReadVariableOp"
  input: "conv2d_99/bias"
  attr {
    key: "dtype"
    value {
      type: DT_FLOAT
    }
  }
}
node {
  name: "conv2d_99/BiasAdd"
  op: "BiasAdd"
  input: "conv2d_99/Conv2D"
  input: "conv2d_99/BiasAdd/ReadVariableOp"
  attr {
    key: "T"
    value {
      type: DT_FLOAT
    }
  }
  attr {
    key: "data_format"
    value {
      s: "NHWC"
    }
  }
}
node {
  name: "conv2d_99/Relu"
  op: "Relu"
  input: "conv2d_99/BiasAdd"
  attr {
    key: "T"
    value {
      type: DT_FLOAT
    }
  }
}
node {
  name: "conv2d_101/kernel/Initializer/random_uniform/shape"
  op: "Const"
  attr {
    key: "_class"
    value {
      list {
        s: "loc:@conv2d_101/kernel"
      }
    }
  }
  attr {
    key: "dtype"
    value {
      type: DT_INT32
    }
  }
  attr {
    key: "value"
    value {
      tensor {
        dtype: DT_INT32
        tensor_shape {
          dim {
            size: 4
          }
        }
        tensor_content: "\003\000\000\000\003\000\000\000`\000\000\000\320\000\000\000"
      }
    }
  }
}
node {
  name: "conv2d_101/kernel/Initializer/random_uniform/min"
  op: "Const"
  attr {
    key: "_class"
    value {
      list {
        s: "loc:@conv2d_101/kernel"
      }
    }
  }
  attr {
    key: "dtype"
    value {
      type: DT_FLOAT
    }
  }
  attr {
    key: "value"
    value {
      tensor {
        dtype: DT_FLOAT
        tensor_shape {
        }
        float_val: -0.04682929068803787
      }
    }
  }
}
node {
  name: "conv2d_101/kernel/Initializer/random_uniform/max"
  op: "Const"
  attr {
    key: "_class"
    value {
      list {
        s: "loc:@conv2d_101/kernel"
      }
    }
  }
  attr {
    key: "dtype"
    value {
      type: DT_FLOAT
    }
  }
  attr {
    key: "value"
    value {
      tensor {
        dtype: DT_FLOAT
        tensor_shape {
        }
        float_val: 0.04682929068803787
      }
    }
  }
}
node {
  name: "conv2d_101/kernel/Initializer/random_uniform/RandomUniform"
  op: "RandomUniform"
  input: "conv2d_101/kernel/Initializer/random_uniform/shape"
  attr {
    key: "T"
    value {
      type: DT_INT32
    }
  }
  attr {
    key: "_class"
    value {
      list {
        s: "loc:@conv2d_101/kernel"
      }
    }
  }
  attr {
    key: "dtype"
    value {
      type: DT_FLOAT
    }
  }
  attr {
    key: "seed"
    value {
      i: 0
    }
  }
  attr {
    key: "seed2"
    value {
      i: 0
    }
  }
}
node {
  name: "conv2d_101/kernel/Initializer/random_uniform/sub"
  op: "Sub"
  input: "conv2d_101/kernel/Initializer/random_uniform/max"
  input: "conv2d_101/kernel/Initializer/random_uniform/min"
  attr {
    key: "T"
    value {
      type: DT_FLOAT
    }
  }
  attr {
    key: "_class"
    value {
      list {
        s: "loc:@conv2d_101/kernel"
      }
    }
  }
}
node {
  name: "conv2d_101/kernel/Initializer/random_uniform/mul"
  op: "Mul"
  input: "conv2d_101/kernel/Initializer/random_uniform/RandomUniform"
  input: "conv2d_101/kernel/Initializer/random_uniform/sub"
  attr {
    key: "T"
    value {
      type: DT_FLOAT
    }
  }
  attr {
    key: "_class"
    value {
      list {
        s: "loc:@conv2d_101/kernel"
      }
    }
  }
}
node {
  name: "conv2d_101/kernel/Initializer/random_uniform"
  op: "Add"
  input: "conv2d_101/kernel/Initializer/random_uniform/mul"
  input: "conv2d_101/kernel/Initializer/random_uniform/min"
  attr {
    key: "T"
    value {
      type: DT_FLOAT
    }
  }
  attr {
    key: "_class"
    value {
      list {
        s: "loc:@conv2d_101/kernel"
      }
    }
  }
}
node {
  name: "conv2d_101/kernel"
  op: "VarHandleOp"
  attr {
    key: "_class"
    value {
      list {
        s: "loc:@conv2d_101/kernel"
      }
    }
  }
  attr {
    key: "container"
    value {
      s: ""
    }
  }
  attr {
    key: "dtype"
    value {
      type: DT_FLOAT
    }
  }
  attr {
    key: "shape"
    value {
      shape {
        dim {
          size: 3
        }
        dim {
          size: 3
        }
        dim {
          size: 96
        }
        dim {
          size: 208
        }
      }
    }
  }
  attr {
    key: "shared_name"
    value {
      s: "conv2d_101/kernel"
    }
  }
}
node {
  name: "conv2d_101/kernel/IsInitialized/VarIsInitializedOp"
  op: "VarIsInitializedOp"
  input: "conv2d_101/kernel"
}
node {
  name: "conv2d_101/kernel/Assign"
  op: "AssignVariableOp"
  input: "conv2d_101/kernel"
  input: "conv2d_101/kernel/Initializer/random_uniform"
  attr {
    key: "dtype"
    value {
      type: DT_FLOAT
    }
  }
}
node {
  name: "conv2d_101/kernel/Read/ReadVariableOp"
  op: "ReadVariableOp"
  input: "conv2d_101/kernel"
  attr {
    key: "dtype"
    value {
      type: DT_FLOAT
    }
  }
}
node {
  name: "conv2d_101/bias/Initializer/zeros"
  op: "Const"
  attr {
    key: "_class"
    value {
      list {
        s: "loc:@conv2d_101/bias"
      }
    }
  }
  attr {
    key: "dtype"
    value {
      type: DT_FLOAT
    }
  }
  attr {
    key: "value"
    value {
      tensor {
        dtype: DT_FLOAT
        tensor_shape {
          dim {
            size: 208
          }
        }
        float_val: 0.0
      }
    }
  }
}
node {
  name: "conv2d_101/bias"
  op: "VarHandleOp"
  attr {
    key: "_class"
    value {
      list {
        s: "loc:@conv2d_101/bias"
      }
    }
  }
  attr {
    key: "container"
    value {
      s: ""
    }
  }
  attr {
    key: "dtype"
    value {
      type: DT_FLOAT
    }
  }
  attr {
    key: "shape"
    value {
      shape {
        dim {
          size: 208
        }
      }
    }
  }
  attr {
    key: "shared_name"
    value {
      s: "conv2d_101/bias"
    }
  }
}
node {
  name: "conv2d_101/bias/IsInitialized/VarIsInitializedOp"
  op: "VarIsInitializedOp"
  input: "conv2d_101/bias"
}
node {
  name: "conv2d_101/bias/Assign"
  op: "AssignVariableOp"
  input: "conv2d_101/bias"
  input: "conv2d_101/bias/Initializer/zeros"
  attr {
    key: "dtype"
    value {
      type: DT_FLOAT
    }
  }
}
node {
  name: "conv2d_101/bias/Read/ReadVariableOp"
  op: "ReadVariableOp"
  input: "conv2d_101/bias"
  attr {
    key: "dtype"
    value {
      type: DT_FLOAT
    }
  }
}
node {
  name: "conv2d_101/dilation_rate"
  op: "Const"
  attr {
    key: "dtype"
    value {
      type: DT_INT32
    }
  }
  attr {
    key: "value"
    value {
      tensor {
        dtype: DT_INT32
        tensor_shape {
          dim {
            size: 2
          }
        }
        tensor_content: "\001\000\000\000\001\000\000\000"
      }
    }
  }
}
node {
  name: "conv2d_101/Conv2D/ReadVariableOp"
  op: "ReadVariableOp"
  input: "conv2d_101/kernel"
  attr {
    key: "dtype"
    value {
      type: DT_FLOAT
    }
  }
}
node {
  name: "conv2d_101/Conv2D"
  op: "Conv2D"
  input: "conv2d_100/Relu"
  input: "conv2d_101/Conv2D/ReadVariableOp"
  attr {
    key: "T"
    value {
      type: DT_FLOAT
    }
  }
  attr {
    key: "data_format"
    value {
      s: "NHWC"
    }
  }
  attr {
    key: "dilations"
    value {
      list {
        i: 1
        i: 1
        i: 1
        i: 1
      }
    }
  }
  attr {
    key: "explicit_paddings"
    value {
      list {
      }
    }
  }
  attr {
    key: "padding"
    value {
      s: "SAME"
    }
  }
  attr {
    key: "strides"
    value {
      list {
        i: 1
        i: 1
        i: 1
        i: 1
      }
    }
  }
  attr {
    key: "use_cudnn_on_gpu"
    value {
      b: true
    }
  }
}
node {
  name: "conv2d_101/BiasAdd/ReadVariableOp"
  op: "ReadVariableOp"
  input: "conv2d_101/bias"
  attr {
    key: "dtype"
    value {
      type: DT_FLOAT
    }
  }
}
node {
  name: "conv2d_101/BiasAdd"
  op: "BiasAdd"
  input: "conv2d_101/Conv2D"
  input: "conv2d_101/BiasAdd/ReadVariableOp"
  attr {
    key: "T"
    value {
      type: DT_FLOAT
    }
  }
  attr {
    key: "data_format"
    value {
      s: "NHWC"
    }
  }
}
node {
  name: "conv2d_101/Relu"
  op: "Relu"
  input: "conv2d_101/BiasAdd"
  attr {
    key: "T"
    value {
      type: DT_FLOAT
    }
  }
}
node {
  name: "conv2d_103/kernel/Initializer/random_uniform/shape"
  op: "Const"
  attr {
    key: "_class"
    value {
      list {
        s: "loc:@conv2d_103/kernel"
      }
    }
  }
  attr {
    key: "dtype"
    value {
      type: DT_INT32
    }
  }
  attr {
    key: "value"
    value {
      tensor {
        dtype: DT_INT32
        tensor_shape {
          dim {
            size: 4
          }
        }
        tensor_content: "\005\000\000\000\005\000\000\000\020\000\000\0000\000\000\000"
      }
    }
  }
}
node {
  name: "conv2d_103/kernel/Initializer/random_uniform/min"
  op: "Const"
  attr {
    key: "_class"
    value {
      list {
        s: "loc:@conv2d_103/kernel"
      }
    }
  }
  attr {
    key: "dtype"
    value {
      type: DT_FLOAT
    }
  }
  attr {
    key: "value"
    value {
      tensor {
        dtype: DT_FLOAT
        tensor_shape {
        }
        float_val: -0.06123724207282066
      }
    }
  }
}
node {
  name: "conv2d_103/kernel/Initializer/random_uniform/max"
  op: "Const"
  attr {
    key: "_class"
    value {
      list {
        s: "loc:@conv2d_103/kernel"
      }
    }
  }
  attr {
    key: "dtype"
    value {
      type: DT_FLOAT
    }
  }
  attr {
    key: "value"
    value {
      tensor {
        dtype: DT_FLOAT
        tensor_shape {
        }
        float_val: 0.06123724207282066
      }
    }
  }
}
node {
  name: "conv2d_103/kernel/Initializer/random_uniform/RandomUniform"
  op: "RandomUniform"
  input: "conv2d_103/kernel/Initializer/random_uniform/shape"
  attr {
    key: "T"
    value {
      type: DT_INT32
    }
  }
  attr {
    key: "_class"
    value {
      list {
        s: "loc:@conv2d_103/kernel"
      }
    }
  }
  attr {
    key: "dtype"
    value {
      type: DT_FLOAT
    }
  }
  attr {
    key: "seed"
    value {
      i: 0
    }
  }
  attr {
    key: "seed2"
    value {
      i: 0
    }
  }
}
node {
  name: "conv2d_103/kernel/Initializer/random_uniform/sub"
  op: "Sub"
  input: "conv2d_103/kernel/Initializer/random_uniform/max"
  input: "conv2d_103/kernel/Initializer/random_uniform/min"
  attr {
    key: "T"
    value {
      type: DT_FLOAT
    }
  }
  attr {
    key: "_class"
    value {
      list {
        s: "loc:@conv2d_103/kernel"
      }
    }
  }
}
node {
  name: "conv2d_103/kernel/Initializer/random_uniform/mul"
  op: "Mul"
  input: "conv2d_103/kernel/Initializer/random_uniform/RandomUniform"
  input: "conv2d_103/kernel/Initializer/random_uniform/sub"
  attr {
    key: "T"
    value {
      type: DT_FLOAT
    }
  }
  attr {
    key: "_class"
    value {
      list {
        s: "loc:@conv2d_103/kernel"
      }
    }
  }
}
node {
  name: "conv2d_103/kernel/Initializer/random_uniform"
  op: "Add"
  input: "conv2d_103/kernel/Initializer/random_uniform/mul"
  input: "conv2d_103/kernel/Initializer/random_uniform/min"
  attr {
    key: "T"
    value {
      type: DT_FLOAT
    }
  }
  attr {
    key: "_class"
    value {
      list {
        s: "loc:@conv2d_103/kernel"
      }
    }
  }
}
node {
  name: "conv2d_103/kernel"
  op: "VarHandleOp"
  attr {
    key: "_class"
    value {
      list {
        s: "loc:@conv2d_103/kernel"
      }
    }
  }
  attr {
    key: "container"
    value {
      s: ""
    }
  }
  attr {
    key: "dtype"
    value {
      type: DT_FLOAT
    }
  }
  attr {
    key: "shape"
    value {
      shape {
        dim {
          size: 5
        }
        dim {
          size: 5
        }
        dim {
          size: 16
        }
        dim {
          size: 48
        }
      }
    }
  }
  attr {
    key: "shared_name"
    value {
      s: "conv2d_103/kernel"
    }
  }
}
node {
  name: "conv2d_103/kernel/IsInitialized/VarIsInitializedOp"
  op: "VarIsInitializedOp"
  input: "conv2d_103/kernel"
}
node {
  name: "conv2d_103/kernel/Assign"
  op: "AssignVariableOp"
  input: "conv2d_103/kernel"
  input: "conv2d_103/kernel/Initializer/random_uniform"
  attr {
    key: "dtype"
    value {
      type: DT_FLOAT
    }
  }
}
node {
  name: "conv2d_103/kernel/Read/ReadVariableOp"
  op: "ReadVariableOp"
  input: "conv2d_103/kernel"
  attr {
    key: "dtype"
    value {
      type: DT_FLOAT
    }
  }
}
node {
  name: "conv2d_103/bias/Initializer/zeros"
  op: "Const"
  attr {
    key: "_class"
    value {
      list {
        s: "loc:@conv2d_103/bias"
      }
    }
  }
  attr {
    key: "dtype"
    value {
      type: DT_FLOAT
    }
  }
  attr {
    key: "value"
    value {
      tensor {
        dtype: DT_FLOAT
        tensor_shape {
          dim {
            size: 48
          }
        }
        float_val: 0.0
      }
    }
  }
}
node {
  name: "conv2d_103/bias"
  op: "VarHandleOp"
  attr {
    key: "_class"
    value {
      list {
        s: "loc:@conv2d_103/bias"
      }
    }
  }
  attr {
    key: "container"
    value {
      s: ""
    }
  }
  attr {
    key: "dtype"
    value {
      type: DT_FLOAT
    }
  }
  attr {
    key: "shape"
    value {
      shape {
        dim {
          size: 48
        }
      }
    }
  }
  attr {
    key: "shared_name"
    value {
      s: "conv2d_103/bias"
    }
  }
}
node {
  name: "conv2d_103/bias/IsInitialized/VarIsInitializedOp"
  op: "VarIsInitializedOp"
  input: "conv2d_103/bias"
}
node {
  name: "conv2d_103/bias/Assign"
  op: "AssignVariableOp"
  input: "conv2d_103/bias"
  input: "conv2d_103/bias/Initializer/zeros"
  attr {
    key: "dtype"
    value {
      type: DT_FLOAT
    }
  }
}
node {
  name: "conv2d_103/bias/Read/ReadVariableOp"
  op: "ReadVariableOp"
  input: "conv2d_103/bias"
  attr {
    key: "dtype"
    value {
      type: DT_FLOAT
    }
  }
}
node {
  name: "conv2d_103/dilation_rate"
  op: "Const"
  attr {
    key: "dtype"
    value {
      type: DT_INT32
    }
  }
  attr {
    key: "value"
    value {
      tensor {
        dtype: DT_INT32
        tensor_shape {
          dim {
            size: 2
          }
        }
        tensor_content: "\001\000\000\000\001\000\000\000"
      }
    }
  }
}
node {
  name: "conv2d_103/Conv2D/ReadVariableOp"
  op: "ReadVariableOp"
  input: "conv2d_103/kernel"
  attr {
    key: "dtype"
    value {
      type: DT_FLOAT
    }
  }
}
node {
  name: "conv2d_103/Conv2D"
  op: "Conv2D"
  input: "conv2d_102/Relu"
  input: "conv2d_103/Conv2D/ReadVariableOp"
  attr {
    key: "T"
    value {
      type: DT_FLOAT
    }
  }
  attr {
    key: "data_format"
    value {
      s: "NHWC"
    }
  }
  attr {
    key: "dilations"
    value {
      list {
        i: 1
        i: 1
        i: 1
        i: 1
      }
    }
  }
  attr {
    key: "explicit_paddings"
    value {
      list {
      }
    }
  }
  attr {
    key: "padding"
    value {
      s: "SAME"
    }
  }
  attr {
    key: "strides"
    value {
      list {
        i: 1
        i: 1
        i: 1
        i: 1
      }
    }
  }
  attr {
    key: "use_cudnn_on_gpu"
    value {
      b: true
    }
  }
}
node {
  name: "conv2d_103/BiasAdd/ReadVariableOp"
  op: "ReadVariableOp"
  input: "conv2d_103/bias"
  attr {
    key: "dtype"
    value {
      type: DT_FLOAT
    }
  }
}
node {
  name: "conv2d_103/BiasAdd"
  op: "BiasAdd"
  input: "conv2d_103/Conv2D"
  input: "conv2d_103/BiasAdd/ReadVariableOp"
  attr {
    key: "T"
    value {
      type: DT_FLOAT
    }
  }
  attr {
    key: "data_format"
    value {
      s: "NHWC"
    }
  }
}
node {
  name: "conv2d_103/Relu"
  op: "Relu"
  input: "conv2d_103/BiasAdd"
  attr {
    key: "T"
    value {
      type: DT_FLOAT
    }
  }
}
node {
  name: "max_pooling2d_40/MaxPool"
  op: "MaxPool"
  input: "conv2d_104/Relu"
  attr {
    key: "T"
    value {
      type: DT_FLOAT
    }
  }
  attr {
    key: "data_format"
    value {
      s: "NHWC"
    }
  }
  attr {
    key: "ksize"
    value {
      list {
        i: 1
        i: 3
        i: 3
        i: 1
      }
    }
  }
  attr {
    key: "padding"
    value {
      s: "SAME"
    }
  }
  attr {
    key: "strides"
    value {
      list {
        i: 1
        i: 1
        i: 1
        i: 1
      }
    }
  }
}
node {
  name: "concatenate_13/concat/axis"
  op: "Const"
  attr {
    key: "dtype"
    value {
      type: DT_INT32
    }
  }
  attr {
    key: "value"
    value {
      tensor {
        dtype: DT_INT32
        tensor_shape {
        }
        int_val: 3
      }
    }
  }
}
node {
  name: "concatenate_13/concat"
  op: "ConcatV2"
  input: "conv2d_99/Relu"
  input: "conv2d_101/Relu"
  input: "conv2d_103/Relu"
  input: "max_pooling2d_40/MaxPool"
  input: "concatenate_13/concat/axis"
  attr {
    key: "N"
    value {
      i: 4
    }
  }
  attr {
    key: "T"
    value {
      type: DT_FLOAT
    }
  }
  attr {
    key: "Tidx"
    value {
      type: DT_INT32
    }
  }
}
node {
  name: "zero_padding2d_27/Pad/paddings"
  op: "Const"
  attr {
    key: "dtype"
    value {
      type: DT_INT32
    }
  }
  attr {
    key: "value"
    value {
      tensor {
        dtype: DT_INT32
        tensor_shape {
          dim {
            size: 4
          }
          dim {
            size: 2
          }
        }
        tensor_content: "…"
      }
    }
  }
}
node {
  name: "zero_padding2d_27/Pad"
  op: "Pad"
  input: "concatenate_13/concat"
  input: "zero_padding2d_27/Pad/paddings"
  attr {
    key: "T"
    value {
      type: DT_FLOAT
    }
  }
  attr {
    key: "Tpaddings"
    value {
      type: DT_INT32
    }
  }
}
node {
  name: "max_pooling2d_41/MaxPool"
  op: "MaxPool"
  input: "zero_padding2d_27/Pad"
  attr {
    key: "T"
    value {
      type: DT_FLOAT
    }
  }
  attr {
    key: "data_format"
    value {
      s: "NHWC"
    }
  }
  attr {
    key: "ksize"
    value {
      list {
        i: 1
        i: 3
        i: 3
        i: 1
      }
    }
  }
  attr {
    key: "padding"
    value {
      s: "VALID"
    }
  }
  attr {
    key: "strides"
    value {
      list {
        i: 1
        i: 2
        i: 2
        i: 1
      }
    }
  }
}
node {
  name: "global_average_pooling2d_6/Mean/reduction_indices"
  op: "Const"
  attr {
    key: "dtype"
    value {
      type: DT_INT32
    }
  }
  attr {
    key: "value"
    value {
      tensor {
        dtype: DT_INT32
        tensor_shape {
          dim {
            size: 2
          }
        }
        tensor_content: "\001\000\000\000\002\000\000\000"
      }
    }
  }
}
node {
  name: "global_average_pooling2d_6/Mean"
  op: "Mean"
  input: "max_pooling2d_41/MaxPool"
  input: "global_average_pooling2d_6/Mean/reduction_indices"
  attr {
    key: "T"
    value {
      type: DT_FLOAT
    }
  }
  attr {
    key: "Tidx"
    value {
      type: DT_INT32
    }
  }
  attr {
    key: "keep_dims"
    value {
      b: false
    }
  }
}
node {
  name: "dropout_6/Identity"
  op: "Identity"
  input: "global_average_pooling2d_6/Mean"
  attr {
    key: "T"
    value {
      type: DT_FLOAT
    }
  }
}
node {
  name: "dense_6/kernel/Initializer/random_uniform/shape"
  op: "Const"
  attr {
    key: "_class"
    value {
      list {
        s: "loc:@dense_6/kernel"
      }
    }
  }
  attr {
    key: "dtype"
    value {
      type: DT_INT32
    }
  }
  attr {
    key: "value"
    value {
      tensor {
        dtype: DT_INT32
        tensor_shape {
          dim {
            size: 2
          }
        }
        tensor_content: "\000\002\000\000\r\000\000\000"
      }
    }
  }
}
node {
  name: "dense_6/kernel/Initializer/random_uniform/min"
  op: "Const"
  attr {
    key: "_class"
    value {
      list {
        s: "loc:@dense_6/kernel"
      }
    }
  }
  attr {
    key: "dtype"
    value {
      type: DT_FLOAT
    }
  }
  attr {
    key: "value"
    value {
      tensor {
        dtype: DT_FLOAT
        tensor_shape {
        }
        float_val: -0.10690449923276901
      }
    }
  }
}
node {
  name: "dense_6/kernel/Initializer/random_uniform/max"
  op: "Const"
  attr {
    key: "_class"
    value {
      list {
        s: "loc:@dense_6/kernel"
      }
    }
  }
  attr {
    key: "dtype"
    value {
      type: DT_FLOAT
    }
  }
  attr {
    key: "value"
    value {
      tensor {
        dtype: DT_FLOAT
        tensor_shape {
        }
        float_val: 0.10690449923276901
      }
    }
  }
}
node {
  name: "dense_6/kernel/Initializer/random_uniform/RandomUniform"
  op: "RandomUniform"
  input: "dense_6/kernel/Initializer/random_uniform/shape"
  attr {
    key: "T"
    value {
      type: DT_INT32
    }
  }
  attr {
    key: "_class"
    value {
      list {
        s: "loc:@dense_6/kernel"
      }
    }
  }
  attr {
    key: "dtype"
    value {
      type: DT_FLOAT
    }
  }
  attr {
    key: "seed"
    value {
      i: 0
    }
  }
  attr {
    key: "seed2"
    value {
      i: 0
    }
  }
}
node {
  name: "dense_6/kernel/Initializer/random_uniform/sub"
  op: "Sub"
  input: "dense_6/kernel/Initializer/random_uniform/max"
  input: "dense_6/kernel/Initializer/random_uniform/min"
  attr {
    key: "T"
    value {
      type: DT_FLOAT
    }
  }
  attr {
    key: "_class"
    value {
      list {
        s: "loc:@dense_6/kernel"
      }
    }
  }
}
node {
  name: "dense_6/kernel/Initializer/random_uniform/mul"
  op: "Mul"
  input: "dense_6/kernel/Initializer/random_uniform/RandomUniform"
  input: "dense_6/kernel/Initializer/random_uniform/sub"
  attr {
    key: "T"
    value {
      type: DT_FLOAT
    }
  }
  attr {
    key: "_class"
    value {
      list {
        s: "loc:@dense_6/kernel"
      }
    }
  }
}
node {
  name: "dense_6/kernel/Initializer/random_uniform"
  op: "Add"
  input: "dense_6/kernel/Initializer/random_uniform/mul"
  input: "dense_6/kernel/Initializer/random_uniform/min"
  attr {
    key: "T"
    value {
      type: DT_FLOAT
    }
  }
  attr {
    key: "_class"
    value {
      list {
        s: "loc:@dense_6/kernel"
      }
    }
  }
}
node {
  name: "dense_6/kernel"
  op: "VarHandleOp"
  attr {
    key: "_class"
    value {
      list {
        s: "loc:@dense_6/kernel"
      }
    }
  }
  attr {
    key: "container"
    value {
      s: ""
    }
  }
  attr {
    key: "dtype"
    value {
      type: DT_FLOAT
    }
  }
  attr {
    key: "shape"
    value {
      shape {
        dim {
          size: 512
        }
        dim {
          size: 13
        }
      }
    }
  }
  attr {
    key: "shared_name"
    value {
      s: "dense_6/kernel"
    }
  }
}
node {
  name: "dense_6/kernel/IsInitialized/VarIsInitializedOp"
  op: "VarIsInitializedOp"
  input: "dense_6/kernel"
}
node {
  name: "dense_6/kernel/Assign"
  op: "AssignVariableOp"
  input: "dense_6/kernel"
  input: "dense_6/kernel/Initializer/random_uniform"
  attr {
    key: "dtype"
    value {
      type: DT_FLOAT
    }
  }
}
node {
  name: "dense_6/kernel/Read/ReadVariableOp"
  op: "ReadVariableOp"
  input: "dense_6/kernel"
  attr {
    key: "dtype"
    value {
      type: DT_FLOAT
    }
  }
}
node {
  name: "dense_6/bias/Initializer/zeros"
  op: "Const"
  attr {
    key: "_class"
    value {
      list {
        s: "loc:@dense_6/bias"
      }
    }
  }
  attr {
    key: "dtype"
    value {
      type: DT_FLOAT
    }
  }
  attr {
    key: "value"
    value {
      tensor {
        dtype: DT_FLOAT
        tensor_shape {
          dim {
            size: 13
          }
        }
        float_val: 0.0
      }
    }
  }
}
node {
  name: "dense_6/bias"
  op: "VarHandleOp"
  attr {
    key: "_class"
    value {
      list {
        s: "loc:@dense_6/bias"
      }
    }
  }
  attr {
    key: "container"
    value {
      s: ""
    }
  }
  attr {
    key: "dtype"
    value {
      type: DT_FLOAT
    }
  }
  attr {
    key: "shape"
    value {
      shape {
        dim {
          size: 13
        }
      }
    }
  }
  attr {
    key: "shared_name"
    value {
      s: "dense_6/bias"
    }
  }
}
node {
  name: "dense_6/bias/IsInitialized/VarIsInitializedOp"
  op: "VarIsInitializedOp"
  input: "dense_6/bias"
}
node {
  name: "dense_6/bias/Assign"
  op: "AssignVariableOp"
  input: "dense_6/bias"
  input: "dense_6/bias/Initializer/zeros"
  attr {
    key: "dtype"
    value {
      type: DT_FLOAT
    }
  }
}
node {
  name: "dense_6/bias/Read/ReadVariableOp"
  op: "ReadVariableOp"
  input: "dense_6/bias"
  attr {
    key: "dtype"
    value {
      type: DT_FLOAT
    }
  }
}
node {
  name: "dense_6/MatMul/ReadVariableOp"
  op: "ReadVariableOp"
  input: "dense_6/kernel"
  attr {
    key: "dtype"
    value {
      type: DT_FLOAT
    }
  }
}
node {
  name: "dense_6/MatMul"
  op: "MatMul"
  input: "dropout_6/Identity"
  input: "dense_6/MatMul/ReadVariableOp"
  attr {
    key: "T"
    value {
      type: DT_FLOAT
    }
  }
  attr {
    key: "transpose_a"
    value {
      b: false
    }
  }
  attr {
    key: "transpose_b"
    value {
      b: false
    }
  }
}
node {
  name: "dense_6/BiasAdd/ReadVariableOp"
  op: "ReadVariableOp"
  input: "dense_6/bias"
  attr {
    key: "dtype"
    value {
      type: DT_FLOAT
    }
  }
}
node {
  name: "dense_6/BiasAdd"
  op: "BiasAdd"
  input: "dense_6/MatMul"
  input: "dense_6/BiasAdd/ReadVariableOp"
  attr {
    key: "T"
    value {
      type: DT_FLOAT
    }
  }
  attr {
    key: "data_format"
    value {
      s: "NHWC"
    }
  }
}
node {
  name: "dense_6/Softmax"
  op: "Softmax"
  input: "dense_6/BiasAdd"
  attr {
    key: "T"
    value {
      type: DT_FLOAT
    }
  }
}
node {
  name: "Placeholder"
  op: "Placeholder"
  attr {
    key: "dtype"
    value {
      type: DT_FLOAT
    }
  }
  attr {
    key: "shape"
    value {
      shape {
        dim {
          size: -1
        }
        dim {
          size: -1
        }
        dim {
          size: -1
        }
        dim {
          size: -1
        }
      }
    }
  }
}
node {
  name: "AssignVariableOp"
  op: "AssignVariableOp"
  input: "conv2d_90/kernel"
  input: "Placeholder"
  attr {
    key: "dtype"
    value {
      type: DT_FLOAT
    }
  }
}
node {
  name: "ReadVariableOp"
  op: "ReadVariableOp"
  input: "conv2d_90/kernel"
  input: "^AssignVariableOp"
  attr {
    key: "dtype"
    value {
      type: DT_FLOAT
    }
  }
}
node {
  name: "Placeholder_1"
  op: "Placeholder"
  attr {
    key: "dtype"
    value {
      type: DT_FLOAT
    }
  }
  attr {
    key: "shape"
    value {
      shape {
        dim {
          size: -1
        }
      }
    }
  }
}
node {
  name: "AssignVariableOp_1"
  op: "AssignVariableOp"
  input: "conv2d_90/bias"
  input: "Placeholder_1"
  attr {
    key: "dtype"
    value {
      type: DT_FLOAT
    }
  }
}
node {
  name: "ReadVariableOp_1"
  op: "ReadVariableOp"
  input: "conv2d_90/bias"
  input: "^AssignVariableOp_1"
  attr {
    key: "dtype"
    value {
      type: DT_FLOAT
    }
  }
}
node {
  name: "Placeholder_2"
  op: "Placeholder"
  attr {
    key: "dtype"
    value {
      type: DT_FLOAT
    }
  }
  attr {
    key: "shape"
    value {
      shape {
        dim {
          size: -1
        }
        dim {
          size: -1
        }
        dim {
          size: -1
        }
        dim {
          size: -1
        }
      }
    }
  }
}
node {
  name: "AssignVariableOp_2"
  op: "AssignVariableOp"
  input: "conv2d_91/kernel"
  input: "Placeholder_2"
  attr {
    key: "dtype"
    value {
      type: DT_FLOAT
    }
  }
}
node {
  name: "ReadVariableOp_2"
  op: "ReadVariableOp"
  input: "conv2d_91/kernel"
  input: "^AssignVariableOp_2"
  attr {
    key: "dtype"
    value {
      type: DT_FLOAT
    }
  }
}
node {
  name: "Placeholder_3"
  op: "Placeholder"
  attr {
    key: "dtype"
    value {
      type: DT_FLOAT
    }
  }
  attr {
    key: "shape"
    value {
      shape {
        dim {
          size: -1
        }
      }
    }
  }
}
node {
  name: "AssignVariableOp_3"
  op: "AssignVariableOp"
  input: "conv2d_91/bias"
  input: "Placeholder_3"
  attr {
    key: "dtype"
    value {
      type: DT_FLOAT
    }
  }
}
node {
  name: "ReadVariableOp_3"
  op: "ReadVariableOp"
  input: "conv2d_91/bias"
  input: "^AssignVariableOp_3"
  attr {
    key: "dtype"
    value {
      type: DT_FLOAT
    }
  }
}
node {
  name: "Placeholder_4"
  op: "Placeholder"
  attr {
    key: "dtype"
    value {
      type: DT_FLOAT
    }
  }
  attr {
    key: "shape"
    value {
      shape {
        dim {
          size: -1
        }
        dim {
          size: -1
        }
        dim {
          size: -1
        }
        dim {
          size: -1
        }
      }
    }
  }
}
node {
  name: "AssignVariableOp_4"
  op: "AssignVariableOp"
  input: "conv2d_92/kernel"
  input: "Placeholder_4"
  attr {
    key: "dtype"
    value {
      type: DT_FLOAT
    }
  }
}
node {
  name: "ReadVariableOp_4"
  op: "ReadVariableOp"
  input: "conv2d_92/kernel"
  input: "^AssignVariableOp_4"
  attr {
    key: "dtype"
    value {
      type: DT_FLOAT
    }
  }
}
node {
  name: "Placeholder_5"
  op: "Placeholder"
  attr {
    key: "dtype"
    value {
      type: DT_FLOAT
    }
  }
  attr {
    key: "shape"
    value {
      shape {
        dim {
          size: -1
        }
      }
    }
  }
}
node {
  name: "AssignVariableOp_5"
  op: "AssignVariableOp"
  input: "conv2d_92/bias"
  input: "Placeholder_5"
  attr {
    key: "dtype"
    value {
      type: DT_FLOAT
    }
  }
}
node {
  name: "ReadVariableOp_5"
  op: "ReadVariableOp"
  input: "conv2d_92/bias"
  input: "^AssignVariableOp_5"
  attr {
    key: "dtype"
    value {
      type: DT_FLOAT
    }
  }
}
node {
  name: "Placeholder_6"
  op: "Placeholder"
  attr {
    key: "dtype"
    value {
      type: DT_FLOAT
    }
  }
  attr {
    key: "shape"
    value {
      shape {
        dim {
          size: -1
        }
        dim {
          size: -1
        }
        dim {
          size: -1
        }
        dim {
          size: -1
        }
      }
    }
  }
}
node {
  name: "AssignVariableOp_6"
  op: "AssignVariableOp"
  input: "conv2d_94/kernel"
  input: "Placeholder_6"
  attr {
    key: "dtype"
    value {
      type: DT_FLOAT
    }
  }
}
node {
  name: "ReadVariableOp_6"
  op: "ReadVariableOp"
  input: "conv2d_94/kernel"
  input: "^AssignVariableOp_6"
  attr {
    key: "dtype"
    value {
      type: DT_FLOAT
    }
  }
}
node {
  name: "Placeholder_7"
  op: "Placeholder"
  attr {
    key: "dtype"
    value {
      type: DT_FLOAT
    }
  }
  attr {
    key: "shape"
    value {
      shape {
        dim {
          size: -1
        }
      }
    }
  }
}
node {
  name: "AssignVariableOp_7"
  op: "AssignVariableOp"
  input: "conv2d_94/bias"
  input: "Placeholder_7"
  attr {
    key: "dtype"
    value {
      type: DT_FLOAT
    }
  }
}
node {
  name: "ReadVariableOp_7"
  op: "ReadVariableOp"
  input: "conv2d_94/bias"
  input: "^AssignVariableOp_7"
  attr {
    key: "dtype"
    value {
      type: DT_FLOAT
    }
  }
}
node {
  name: "Placeholder_8"
  op: "Placeholder"
  attr {
    key: "dtype"
    value {
      type: DT_FLOAT
    }
  }
  attr {
    key: "shape"
    value {
      shape {
        dim {
          size: -1
        }
        dim {
          size: -1
        }
        dim {
          size: -1
        }
        dim {
          size: -1
        }
      }
    }
  }
}
node {
  name: "AssignVariableOp_8"
  op: "AssignVariableOp"
  input: "conv2d_96/kernel"
  input: "Placeholder_8"
  attr {
    key: "dtype"
    value {
      type: DT_FLOAT
    }
  }
}
node {
  name: "ReadVariableOp_8"
  op: "ReadVariableOp"
  input: "conv2d_96/kernel"
  input: "^AssignVariableOp_8"
  attr {
    key: "dtype"
    value {
      type: DT_FLOAT
    }
  }
}
node {
  name: "Placeholder_9"
  op: "Placeholder"
  attr {
    key: "dtype"
    value {
      type: DT_FLOAT
    }
  }
  attr {
    key: "shape"
    value {
      shape {
        dim {
          size: -1
        }
      }
    }
  }
}
node {
  name: "AssignVariableOp_9"
  op: "AssignVariableOp"
  input: "conv2d_96/bias"
  input: "Placeholder_9"
  attr {
    key: "dtype"
    value {
      type: DT_FLOAT
    }
  }
}
node {
  name: "ReadVariableOp_9"
  op: "ReadVariableOp"
  input: "conv2d_96/bias"
  input: "^AssignVariableOp_9"
  attr {
    key: "dtype"
    value {
      type: DT_FLOAT
    }
  }
}
node {
  name: "Placeholder_10"
  op: "Placeholder"
  attr {
    key: "dtype"
    value {
      type: DT_FLOAT
    }
  }
  attr {
    key: "shape"
    value {
      shape {
        dim {
          size: -1
        }
        dim {
          size: -1
        }
        dim {
          size: -1
        }
        dim {
          size: -1
        }
      }
    }
  }
}
node {
  name: "AssignVariableOp_10"
  op: "AssignVariableOp"
  input: "conv2d_98/kernel"
  input: "Placeholder_10"
  attr {
    key: "dtype"
    value {
      type: DT_FLOAT
    }
  }
}
node {
  name: "ReadVariableOp_10"
  op: "ReadVariableOp"
  input: "conv2d_98/kernel"
  input: "^AssignVariableOp_10"
  attr {
    key: "dtype"
    value {
      type: DT_FLOAT
    }
  }
}
node {
  name: "Placeholder_11"
  op: "Placeholder"
  attr {
    key: "dtype"
    value {
      type: DT_FLOAT
    }
  }
  attr {
    key: "shape"
    value {
      shape {
        dim {
          size: -1
        }
      }
    }
  }
}
node {
  name: "AssignVariableOp_11"
  op: "AssignVariableOp"
  input: "conv2d_98/bias"
  input: "Placeholder_11"
  attr {
    key: "dtype"
    value {
      type: DT_FLOAT
    }
  }
}
node {
  name: "ReadVariableOp_11"
  op: "ReadVariableOp"
  input: "conv2d_98/bias"
  input: "^AssignVariableOp_11"
  attr {
    key: "dtype"
    value {
      type: DT_FLOAT
    }
  }
}
node {
  name: "Placeholder_12"
  op: "Placeholder"
  attr {
    key: "dtype"
    value {
      type: DT_FLOAT
    }
  }
  attr {
    key: "shape"
    value {
      shape {
        dim {
          size: -1
        }
        dim {
          size: -1
        }
        dim {
          size: -1
        }
        dim {
          size: -1
        }
      }
    }
  }
}
node {
  name: "AssignVariableOp_12"
  op: "AssignVariableOp"
  input: "conv2d_93/kernel"
  input: "Placeholder_12"
  attr {
    key: "dtype"
    value {
      type: DT_FLOAT
    }
  }
}
node {
  name: "ReadVariableOp_12"
  op: "ReadVariableOp"
  input: "conv2d_93/kernel"
  input: "^AssignVariableOp_12"
  attr {
    key: "dtype"
    value {
      type: DT_FLOAT
    }
  }
}
node {
  name: "Placeholder_13"
  op: "Placeholder"
  attr {
    key: "dtype"
    value {
      type: DT_FLOAT
    }
  }
  attr {
    key: "shape"
    value {
      shape {
        dim {
          size: -1
        }
      }
    }
  }
}
node {
  name: "AssignVariableOp_13"
  op: "AssignVariableOp"
  input: "conv2d_93/bias"
  input: "Placeholder_13"
  attr {
    key: "dtype"
    value {
      type: DT_FLOAT
    }
  }
}
node {
  name: "ReadVariableOp_13"
  op: "ReadVariableOp"
  input: "conv2d_93/bias"
  input: "^AssignVariableOp_13"
  attr {
    key: "dtype"
    value {
      type: DT_FLOAT
    }
  }
}
node {
  name: "Placeholder_14"
  op: "Placeholder"
  attr {
    key: "dtype"
    value {
      type: DT_FLOAT
    }
  }
  attr {
    key: "shape"
    value {
      shape {
        dim {
          size: -1
        }
        dim {
          size: -1
        }
        dim {
          size: -1
        }
        dim {
          size: -1
        }
      }
    }
  }
}
node {
  name: "AssignVariableOp_14"
  op: "AssignVariableOp"
  input: "conv2d_95/kernel"
  input: "Placeholder_14"
  attr {
    key: "dtype"
    value {
      type: DT_FLOAT
    }
  }
}
node {
  name: "ReadVariableOp_14"
  op: "ReadVariableOp"
  input: "conv2d_95/kernel"
  input: "^AssignVariableOp_14"
  attr {
    key: "dtype"
    value {
      type: DT_FLOAT
    }
  }
}
node {
  name: "Placeholder_15"
  op: "Placeholder"
  attr {
    key: "dtype"
    value {
      type: DT_FLOAT
    }
  }
  attr {
    key: "shape"
    value {
      shape {
        dim {
          size: -1
        }
      }
    }
  }
}
node {
  name: "AssignVariableOp_15"
  op: "AssignVariableOp"
  input: "conv2d_95/bias"
  input: "Placeholder_15"
  attr {
    key: "dtype"
    value {
      type: DT_FLOAT
    }
  }
}
node {
  name: "ReadVariableOp_15"
  op: "ReadVariableOp"
  input: "conv2d_95/bias"
  input: "^AssignVariableOp_15"
  attr {
    key: "dtype"
    value {
      type: DT_FLOAT
    }
  }
}
node {
  name: "Placeholder_16"
  op: "Placeholder"
  attr {
    key: "dtype"
    value {
      type: DT_FLOAT
    }
  }
  attr {
    key: "shape"
    value {
      shape {
        dim {
          size: -1
        }
        dim {
          size: -1
        }
        dim {
          size: -1
        }
        dim {
          size: -1
        }
      }
    }
  }
}
node {
  name: "AssignVariableOp_16"
  op: "AssignVariableOp"
  input: "conv2d_97/kernel"
  input: "Placeholder_16"
  attr {
    key: "dtype"
    value {
      type: DT_FLOAT
    }
  }
}
node {
  name: "ReadVariableOp_16"
  op: "ReadVariableOp"
  input: "conv2d_97/kernel"
  input: "^AssignVariableOp_16"
  attr {
    key: "dtype"
    value {
      type: DT_FLOAT
    }
  }
}
node {
  name: "Placeholder_17"
  op: "Placeholder"
  attr {
    key: "dtype"
    value {
      type: DT_FLOAT
    }
  }
  attr {
    key: "shape"
    value {
      shape {
        dim {
          size: -1
        }
      }
    }
  }
}
node {
  name: "AssignVariableOp_17"
  op: "AssignVariableOp"
  input: "conv2d_97/bias"
  input: "Placeholder_17"
  attr {
    key: "dtype"
    value {
      type: DT_FLOAT
    }
  }
}
node {
  name: "ReadVariableOp_17"
  op: "ReadVariableOp"
  input: "conv2d_97/bias"
  input: "^AssignVariableOp_17"
  attr {
    key: "dtype"
    value {
      type: DT_FLOAT
    }
  }
}
node {
  name: "Placeholder_18"
  op: "Placeholder"
  attr {
    key: "dtype"
    value {
      type: DT_FLOAT
    }
  }
  attr {
    key: "shape"
    value {
      shape {
        dim {
          size: -1
        }
        dim {
          size: -1
        }
        dim {
          size: -1
        }
        dim {
          size: -1
        }
      }
    }
  }
}
node {
  name: "AssignVariableOp_18"
  op: "AssignVariableOp"
  input: "conv2d_100/kernel"
  input: "Placeholder_18"
  attr {
    key: "dtype"
    value {
      type: DT_FLOAT
    }
  }
}
node {
  name: "ReadVariableOp_18"
  op: "ReadVariableOp"
  input: "conv2d_100/kernel"
  input: "^AssignVariableOp_18"
  attr {
    key: "dtype"
    value {
      type: DT_FLOAT
    }
  }
}
node {
  name: "Placeholder_19"
  op: "Placeholder"
  attr {
    key: "dtype"
    value {
      type: DT_FLOAT
    }
  }
  attr {
    key: "shape"
    value {
      shape {
        dim {
          size: -1
        }
      }
    }
  }
}
node {
  name: "AssignVariableOp_19"
  op: "AssignVariableOp"
  input: "conv2d_100/bias"
  input: "Placeholder_19"
  attr {
    key: "dtype"
    value {
      type: DT_FLOAT
    }
  }
}
node {
  name: "ReadVariableOp_19"
  op: "ReadVariableOp"
  input: "conv2d_100/bias"
  input: "^AssignVariableOp_19"
  attr {
    key: "dtype"
    value {
      type: DT_FLOAT
    }
  }
}
node {
  name: "Placeholder_20"
  op: "Placeholder"
  attr {
    key: "dtype"
    value {
      type: DT_FLOAT
    }
  }
  attr {
    key: "shape"
    value {
      shape {
        dim {
          size: -1
        }
        dim {
          size: -1
        }
        dim {
          size: -1
        }
        dim {
          size: -1
        }
      }
    }
  }
}
node {
  name: "AssignVariableOp_20"
  op: "AssignVariableOp"
  input: "conv2d_102/kernel"
  input: "Placeholder_20"
  attr {
    key: "dtype"
    value {
      type: DT_FLOAT
    }
  }
}
node {
  name: "ReadVariableOp_20"
  op: "ReadVariableOp"
  input: "conv2d_102/kernel"
  input: "^AssignVariableOp_20"
  attr {
    key: "dtype"
    value {
      type: DT_FLOAT
    }
  }
}
node {
  name: "Placeholder_21"
  op: "Placeholder"
  attr {
    key: "dtype"
    value {
      type: DT_FLOAT
    }
  }
  attr {
    key: "shape"
    value {
      shape {
        dim {
          size: -1
        }
      }
    }
  }
}
node {
  name: "AssignVariableOp_21"
  op: "AssignVariableOp"
  input: "conv2d_102/bias"
  input: "Placeholder_21"
  attr {
    key: "dtype"
    value {
      type: DT_FLOAT
    }
  }
}
node {
  name: "ReadVariableOp_21"
  op: "ReadVariableOp"
  input: "conv2d_102/bias"
  input: "^AssignVariableOp_21"
  attr {
    key: "dtype"
    value {
      type: DT_FLOAT
    }
  }
}
node {
  name: "Placeholder_22"
  op: "Placeholder"
  attr {
    key: "dtype"
    value {
      type: DT_FLOAT
    }
  }
  attr {
    key: "shape"
    value {
      shape {
        dim {
          size: -1
        }
        dim {
          size: -1
        }
        dim {
          size: -1
        }
        dim {
          size: -1
        }
      }
    }
  }
}
node {
  name: "AssignVariableOp_22"
  op: "AssignVariableOp"
  input: "conv2d_104/kernel"
  input: "Placeholder_22"
  attr {
    key: "dtype"
    value {
      type: DT_FLOAT
    }
  }
}
node {
  name: "ReadVariableOp_22"
  op: "ReadVariableOp"
  input: "conv2d_104/kernel"
  input: "^AssignVariableOp_22"
  attr {
    key: "dtype"
    value {
      type: DT_FLOAT
    }
  }
}
node {
  name: "Placeholder_23"
  op: "Placeholder"
  attr {
    key: "dtype"
    value {
      type: DT_FLOAT
    }
  }
  attr {
    key: "shape"
    value {
      shape {
        dim {
          size: -1
        }
      }
    }
  }
}
node {
  name: "AssignVariableOp_23"
  op: "AssignVariableOp"
  input: "conv2d_104/bias"
  input: "Placeholder_23"
  attr {
    key: "dtype"
    value {
      type: DT_FLOAT
    }
  }
}
node {
  name: "ReadVariableOp_23"
  op: "ReadVariableOp"
  input: "conv2d_104/bias"
  input: "^AssignVariableOp_23"
  attr {
    key: "dtype"
    value {
      type: DT_FLOAT
    }
  }
}
node {
  name: "Placeholder_24"
  op: "Placeholder"
  attr {
    key: "dtype"
    value {
      type: DT_FLOAT
    }
  }
  attr {
    key: "shape"
    value {
      shape {
        dim {
          size: -1
        }
        dim {
          size: -1
        }
        dim {
          size: -1
        }
        dim {
          size: -1
        }
      }
    }
  }
}
node {
  name: "AssignVariableOp_24"
  op: "AssignVariableOp"
  input: "conv2d_99/kernel"
  input: "Placeholder_24"
  attr {
    key: "dtype"
    value {
      type: DT_FLOAT
    }
  }
}
node {
  name: "ReadVariableOp_24"
  op: "ReadVariableOp"
  input: "conv2d_99/kernel"
  input: "^AssignVariableOp_24"
  attr {
    key: "dtype"
    value {
      type: DT_FLOAT
    }
  }
}
node {
  name: "Placeholder_25"
  op: "Placeholder"
  attr {
    key: "dtype"
    value {
      type: DT_FLOAT
    }
  }
  attr {
    key: "shape"
    value {
      shape {
        dim {
          size: -1
        }
      }
    }
  }
}
node {
  name: "AssignVariableOp_25"
  op: "AssignVariableOp"
  input: "conv2d_99/bias"
  input: "Placeholder_25"
  attr {
    key: "dtype"
    value {
      type: DT_FLOAT
    }
  }
}
node {
  name: "ReadVariableOp_25"
  op: "ReadVariableOp"
  input: "conv2d_99/bias"
  input: "^AssignVariableOp_25"
  attr {
    key: "dtype"
    value {
      type: DT_FLOAT
    }
  }
}
node {
  name: "Placeholder_26"
  op: "Placeholder"
  attr {
    key: "dtype"
    value {
      type: DT_FLOAT
    }
  }
  attr {
    key: "shape"
    value {
      shape {
        dim {
          size: -1
        }
        dim {
          size: -1
        }
        dim {
          size: -1
        }
        dim {
          size: -1
        }
      }
    }
  }
}
node {
  name: "AssignVariableOp_26"
  op: "AssignVariableOp"
  input: "conv2d_101/kernel"
  input: "Placeholder_26"
  attr {
    key: "dtype"
    value {
      type: DT_FLOAT
    }
  }
}
node {
  name: "ReadVariableOp_26"
  op: "ReadVariableOp"
  input: "conv2d_101/kernel"
  input: "^AssignVariableOp_26"
  attr {
    key: "dtype"
    value {
      type: DT_FLOAT
    }
  }
}
node {
  name: "Placeholder_27"
  op: "Placeholder"
  attr {
    key: "dtype"
    value {
      type: DT_FLOAT
    }
  }
  attr {
    key: "shape"
    value {
      shape {
        dim {
          size: -1
        }
      }
    }
  }
}
node {
  name: "AssignVariableOp_27"
  op: "AssignVariableOp"
  input: "conv2d_101/bias"
  input: "Placeholder_27"
  attr {
    key: "dtype"
    value {
      type: DT_FLOAT
    }
  }
}
node {
  name: "ReadVariableOp_27"
  op: "ReadVariableOp"
  input: "conv2d_101/bias"
  input: "^AssignVariableOp_27"
  attr {
    key: "dtype"
    value {
      type: DT_FLOAT
    }
  }
}
node {
  name: "Placeholder_28"
  op: "Placeholder"
  attr {
    key: "dtype"
    value {
      type: DT_FLOAT
    }
  }
  attr {
    key: "shape"
    value {
      shape {
        dim {
          size: -1
        }
        dim {
          size: -1
        }
        dim {
          size: -1
        }
        dim {
          size: -1
        }
      }
    }
  }
}
node {
  name: "AssignVariableOp_28"
  op: "AssignVariableOp"
  input: "conv2d_103/kernel"
  input: "Placeholder_28"
  attr {
    key: "dtype"
    value {
      type: DT_FLOAT
    }
  }
}
node {
  name: "ReadVariableOp_28"
  op: "ReadVariableOp"
  input: "conv2d_103/kernel"
  input: "^AssignVariableOp_28"
  attr {
    key: "dtype"
    value {
      type: DT_FLOAT
    }
  }
}
node {
  name: "Placeholder_29"
  op: "Placeholder"
  attr {
    key: "dtype"
    value {
      type: DT_FLOAT
    }
  }
  attr {
    key: "shape"
    value {
      shape {
        dim {
          size: -1
        }
      }
    }
  }
}
node {
  name: "AssignVariableOp_29"
  op: "AssignVariableOp"
  input: "conv2d_103/bias"
  input: "Placeholder_29"
  attr {
    key: "dtype"
    value {
      type: DT_FLOAT
    }
  }
}
node {
  name: "ReadVariableOp_29"
  op: "ReadVariableOp"
  input: "conv2d_103/bias"
  input: "^AssignVariableOp_29"
  attr {
    key: "dtype"
    value {
      type: DT_FLOAT
    }
  }
}
node {
  name: "Placeholder_30"
  op: "Placeholder"
  attr {
    key: "dtype"
    value {
      type: DT_FLOAT
    }
  }
  attr {
    key: "shape"
    value {
      shape {
        dim {
          size: -1
        }
        dim {
          size: -1
        }
      }
    }
  }
}
node {
  name: "AssignVariableOp_30"
  op: "AssignVariableOp"
  input: "dense_6/kernel"
  input: "Placeholder_30"
  attr {
    key: "dtype"
    value {
      type: DT_FLOAT
    }
  }
}
node {
  name: "ReadVariableOp_30"
  op: "ReadVariableOp"
  input: "dense_6/kernel"
  input: "^AssignVariableOp_30"
  attr {
    key: "dtype"
    value {
      type: DT_FLOAT
    }
  }
}
node {
  name: "Placeholder_31"
  op: "Placeholder"
  attr {
    key: "dtype"
    value {
      type: DT_FLOAT
    }
  }
  attr {
    key: "shape"
    value {
      shape {
        dim {
          size: -1
        }
      }
    }
  }
}
node {
  name: "AssignVariableOp_31"
  op: "AssignVariableOp"
  input: "dense_6/bias"
  input: "Placeholder_31"
  attr {
    key: "dtype"
    value {
      type: DT_FLOAT
    }
  }
}
node {
  name: "ReadVariableOp_31"
  op: "ReadVariableOp"
  input: "dense_6/bias"
  input: "^AssignVariableOp_31"
  attr {
    key: "dtype"
    value {
      type: DT_FLOAT
    }
  }
}
node {
  name: "VarIsInitializedOp"
  op: "VarIsInitializedOp"
  input: "conv2d_97/bias"
}
node {
  name: "VarIsInitializedOp_1"
  op: "VarIsInitializedOp"
  input: "conv2d_93/kernel"
}
node {
  name: "VarIsInitializedOp_2"
  op: "VarIsInitializedOp"
  input: "conv2d_90/kernel"
}
node {
  name: "VarIsInitializedOp_3"
  op: "VarIsInitializedOp"
  input: "conv2d_92/bias"
}
node {
  name: "VarIsInitializedOp_4"
  op: "VarIsInitializedOp"
  input: "conv2d_94/bias"
}
node {
  name: "VarIsInitializedOp_5"
  op: "VarIsInitializedOp"
  input: "conv2d_96/kernel"
}
node {
  name: "VarIsInitializedOp_6"
  op: "VarIsInitializedOp"
  input: "conv2d_98/kernel"
}
node {
  name: "VarIsInitializedOp_7"
  op: "VarIsInitializedOp"
  input: "conv2d_100/kernel"
}
node {
  name: "VarIsInitializedOp_8"
  op: "VarIsInitializedOp"
  input: "conv2d_102/kernel"
}
node {
  name: "VarIsInitializedOp_9"
  op: "VarIsInitializedOp"
  input: "conv2d_102/bias"
}
node {
  name: "VarIsInitializedOp_10"
  op: "VarIsInitializedOp"
  input: "conv2d_95/bias"
}
node {
  name: "VarIsInitializedOp_11"
  op: "VarIsInitializedOp"
  input: "conv2d_91/bias"
}
node {
  name: "VarIsInitializedOp_12"
  op: "VarIsInitializedOp"
  input: "conv2d_100/bias"
}
node {
  name: "VarIsInitializedOp_13"
  op: "VarIsInitializedOp"
  input: "conv2d_101/bias"
}
node {
  name: "VarIsInitializedOp_14"
  op: "VarIsInitializedOp"
  input: "conv2d_103/bias"
}
node {
  name: "VarIsInitializedOp_15"
  op: "VarIsInitializedOp"
  input: "conv2d_103/kernel"
}
node {
  name: "VarIsInitializedOp_16"
  op: "VarIsInitializedOp"
  input: "dense_6/bias"
}
node {
  name: "VarIsInitializedOp_17"
  op: "VarIsInitializedOp"
  input: "conv2d_93/bias"
}
node {
  name: "VarIsInitializedOp_18"
  op: "VarIsInitializedOp"
  input: "conv2d_97/kernel"
}
node {
  name: "VarIsInitializedOp_19"
  op: "VarIsInitializedOp"
  input: "conv2d_92/kernel"
}
node {
  name: "VarIsInitializedOp_20"
  op: "VarIsInitializedOp"
  input: "conv2d_96/bias"
}
node {
  name: "VarIsInitializedOp_21"
  op: "VarIsInitializedOp"
  input: "conv2d_98/bias"
}
node {
  name: "VarIsInitializedOp_22"
  op: "VarIsInitializedOp"
  input: "conv2d_95/kernel"
}
node {
  name: "VarIsInitializedOp_23"
  op: "VarIsInitializedOp"
  input: "conv2d_99/kernel"
}
node {
  name: "VarIsInitializedOp_24"
  op: "VarIsInitializedOp"
…
        s: "loc:@dense_6/kernel"
      }
    }
  }
}
node {
  name: "training/Adam/dense_6/kernel/v/Assign"
  op: "AssignVariableOp"
  input: "training/Adam/dense_6/kernel/v"
  input: "training/Adam/dense_6/kernel/v/Initializer/zeros"
  attr {
    key: "dtype"
    value {
      type: DT_FLOAT
    }
  }
}
node {
  name: "training/Adam/dense_6/kernel/v/Read/ReadVariableOp"
  op: "ReadVariableOp"
  input: "training/Adam/dense_6/kernel/v"
  attr {
    key: "_class"
    value {
      list {
        s: "loc:@dense_6/kernel"
      }
    }
  }
  attr {
    key: "dtype"
    value {
      type: DT_FLOAT
    }
  }
}
node {
  name: "training/Adam/dense_6/bias/v/Initializer/zeros"
  op: "Const"
  attr {
    key: "_class"
    value {
      list {
        s: "loc:@dense_6/bias"
      }
    }
  }
  attr {
    key: "dtype"
    value {
      type: DT_FLOAT
    }
  }
  attr {
    key: "value"
    value {
      tensor {
        dtype: DT_FLOAT
        tensor_shape {
          dim {
            size: 13
          }
        }
        float_val: 0.0
      }
    }
  }
}
node {
  name: "training/Adam/dense_6/bias/v"
  op: "VarHandleOp"
  attr {
    key: "_class"
    value {
      list {
        s: "loc:@dense_6/bias"
      }
    }
  }
  attr {
    key: "container"
    value {
      s: ""
    }
  }
  attr {
    key: "dtype"
    value {
      type: DT_FLOAT
    }
  }
  attr {
    key: "shape"
    value {
      shape {
        dim {
          size: 13
        }
      }
    }
  }
  attr {
    key: "shared_name"
    value {
      s: "training/Adam/dense_6/bias/v"
    }
  }
}
node {
  name: "training/Adam/dense_6/bias/v/IsInitialized/VarIsInitializedOp"
  op: "VarIsInitializedOp"
  input: "training/Adam/dense_6/bias/v"
  attr {
    key: "_class"
    value {
      list {
        s: "loc:@dense_6/bias"
      }
    }
  }
}
node {
  name: "training/Adam/dense_6/bias/v/Assign"
  op: "AssignVariableOp"
  input: "training/Adam/dense_6/bias/v"
  input: "training/Adam/dense_6/bias/v/Initializer/zeros"
  attr {
    key: "dtype"
    value {
      type: DT_FLOAT
    }
  }
}
node {
  name: "training/Adam/dense_6/bias/v/Read/ReadVariableOp"
  op: "ReadVariableOp"
  input: "training/Adam/dense_6/bias/v"
  attr {
    key: "_class"
    value {
      list {
        s: "loc:@dense_6/bias"
      }
    }
  }
  attr {
    key: "dtype"
    value {
      type: DT_FLOAT
    }
  }
}
node {
  name: "training/Adam/Identity/ReadVariableOp"
  op: "ReadVariableOp"
  input: "training/Adam/learning_rate"
  attr {
    key: "dtype"
    value {
      type: DT_FLOAT
    }
  }
}
node {
  name: "training/Adam/Identity"
  op: "Identity"
  input: "training/Adam/Identity/ReadVariableOp"
  attr {
    key: "T"
    value {
      type: DT_FLOAT
    }
  }
}
node {
  name: "training/Adam/ReadVariableOp"
  op: "ReadVariableOp"
  input: "training/Adam/iter"
  attr {
    key: "dtype"
    value {
      type: DT_INT64
    }
  }
}
node {
  name: "training/Adam/add/y"
  op: "Const"
  attr {
    key: "dtype"
    value {
      type: DT_INT64
    }
  }
  attr {
    key: "value"
    value {
      tensor {
        dtype: DT_INT64
        tensor_shape {
        }
        int64_val: 1
      }
    }
  }
}
node {
  name: "training/Adam/add"
  op: "AddV2"
  input: "training/Adam/ReadVariableOp"
  input: "training/Adam/add/y"
  attr {
    key: "T"
    value {
      type: DT_INT64
    }
  }
}
node {
  name: "training/Adam/Cast"
  op: "Cast"
  input: "training/Adam/add"
  attr {
    key: "DstT"
    value {
      type: DT_FLOAT
    }
  }
  attr {
    key: "SrcT"
    value {
      type: DT_INT64
    }
  }
  attr {
    key: "Truncate"
    value {
      b: false
    }
  }
}
node {
  name: "training/Adam/Identity_1/ReadVariableOp"
  op: "ReadVariableOp"
  input: "training/Adam/beta_1"
  attr {
    key: "dtype"
    value {
      type: DT_FLOAT
    }
  }
}
node {
  name: "training/Adam/Identity_1"
  op: "Identity"
  input: "training/Adam/Identity_1/ReadVariableOp"
  attr {
    key: "T"
    value {
      type: DT_FLOAT
    }
  }
}
node {
  name: "training/Adam/Identity_2/ReadVariableOp"
  op: "ReadVariableOp"
  input: "training/Adam/beta_2"
  attr {
    key: "dtype"
    value {
      type: DT_FLOAT
    }
  }
}
node {
  name: "training/Adam/Identity_2"
  op: "Identity"
  input: "training/Adam/Identity_2/ReadVariableOp"
  attr {
    key: "T"
    value {
      type: DT_FLOAT
    }
  }
}
node {
  name: "training/Adam/Pow"
  op: "Pow"
  input: "training/Adam/Identity_1"
  input: "training/Adam/Cast"
  attr {
    key: "T"
    value {
      type: DT_FLOAT
    }
  }
}
node {
  name: "training/Adam/Pow_1"
  op: "Pow"
  input: "training/Adam/Identity_2"
  input: "training/Adam/Cast"
  attr {
    key: "T"
    value {
      type: DT_FLOAT
    }
  }
}
node {
  name: "training/Adam/sub/x"
  op: "Const"
  attr {
    key: "dtype"
    value {
      type: DT_FLOAT
    }
  }
  attr {
    key: "value"
    value {
      tensor {
        dtype: DT_FLOAT
        tensor_shape {
        }
        float_val: 1.0
      }
    }
  }
}
node {
  name: "training/Adam/sub"
  op: "Sub"
  input: "training/Adam/sub/x"
  input: "training/Adam/Pow_1"
  attr {
    key: "T"
    value {
      type: DT_FLOAT
    }
  }
}
node {
  name: "training/Adam/Sqrt"
  op: "Sqrt"
  input: "training/Adam/sub"
  attr {
    key: "T"
    value {
      type: DT_FLOAT
    }
  }
}
node {
  name: "training/Adam/sub_1/x"
  op: "Const"
  attr {
    key: "dtype"
    value {
      type: DT_FLOAT
    }
  }
  attr {
    key: "value"
    value {
      tensor {
        dtype: DT_FLOAT
        tensor_shape {
        }
        float_val: 1.0
      }
    }
  }
}
node {
  name: "training/Adam/sub_1"
  op: "Sub"
  input: "training/Adam/sub_1/x"
  input: "training/Adam/Pow"
  attr {
    key: "T"
    value {
      type: DT_FLOAT
    }
  }
}
node {
  name: "training/Adam/truediv"
  op: "RealDiv"
  input: "training/Adam/Sqrt"
  input: "training/Adam/sub_1"
  attr {
    key: "T"
    value {
      type: DT_FLOAT
    }
  }
}
node {
  name: "training/Adam/mul"
  op: "Mul"
  input: "training/Adam/Identity"
  input: "training/Adam/truediv"
  attr {
    key: "T"
    value {
      type: DT_FLOAT
    }
  }
}
node {
  name: "training/Adam/Const"
  op: "Const"
  attr {
    key: "dtype"
    value {
      type: DT_FLOAT
    }
  }
  attr {
    key: "value"
    value {
      tensor {
        dtype: DT_FLOAT
        tensor_shape {
        }
        float_val: 1.0000000116860974e-07
      }
    }
  }
}
node {
  name: "training/Adam/sub_2/x"
  op: "Const"
  attr {
    key: "dtype"
    value {
      type: DT_FLOAT
    }
  }
  attr {
    key: "value"
    value {
      tensor {
        dtype: DT_FLOAT
        tensor_shape {
        }
        float_val: 1.0
      }
    }
  }
}
node {
  name: "training/Adam/sub_2"
  op: "Sub"
  input: "training/Adam/sub_2/x"
  input: "training/Adam/Identity_1"
  attr {
    key: "T"
    value {
      type: DT_FLOAT
    }
  }
}
node {
  name: "training/Adam/sub_3/x"
  op: "Const"
  attr {
    key: "dtype"
    value {
      type: DT_FLOAT
    }
  }
  attr {
    key: "value"
    value {
      tensor {
        dtype: DT_FLOAT
        tensor_shape {
        }
        float_val: 1.0
      }
    }
  }
}
node {
  name: "training/Adam/sub_3"
  op: "Sub"
  input: "training/Adam/sub_3/x"
  input: "training/Adam/Identity_2"
  attr {
    key: "T"
    value {
      type: DT_FLOAT
    }
  }
}
node {
  name: "training/Adam/Adam/update_conv2d_90/kernel/ResourceApplyAdam"
  op: "ResourceApplyAdam"
  input: "conv2d_90/kernel"
  input: "training/Adam/conv2d_90/kernel/m"
  input: "training/Adam/conv2d_90/kernel/v"
  input: "training/Adam/Pow"
  input: "training/Adam/Pow_1"
  input: "training/Adam/Identity"
  input: "training/Adam/Identity_1"
  input: "training/Adam/Identity_2"
  input: "training/Adam/Const"
  input: "training/Adam/gradients/gradients/conv2d_90/Conv2D_grad/Conv2DBackpropFilter"
  attr {
    key: "T"
    value {
      type: DT_FLOAT
    }
  }
  attr {
    key: "_class"
    value {
      list {
        s: "loc:@conv2d_90/kernel"
      }
    }
  }
  attr {
    key: "use_locking"
    value {
      b: true
    }
  }
  attr {
    key: "use_nesterov"
    value {
      b: false
    }
  }
}
node {
  name: "training/Adam/Adam/update_conv2d_90/bias/ResourceApplyAdam"
  op: "ResourceApplyAdam"
  input: "conv2d_90/bias"
  input: "training/Adam/conv2d_90/bias/m"
  input: "training/Adam/conv2d_90/bias/v"
  input: "training/Adam/Pow"
  input: "training/Adam/Pow_1"
  input: "training/Adam/Identity"
  input: "training/Adam/Identity_1"
  input: "training/Adam/Identity_2"
  input: "training/Adam/Const"
  input: "training/Adam/gradients/gradients/conv2d_90/BiasAdd_grad/BiasAddGrad"
  attr {
    key: "T"
    value {
      type: DT_FLOAT
    }
  }
  attr {
    key: "_class"
    value {
      list {
        s: "loc:@conv2d_90/bias"
      }
    }
  }
  attr {
    key: "use_locking"
    value {
      b: true
    }
  }
  attr {
    key: "use_nesterov"
    value {
      b: false
    }
  }
}
node {
  name: "training/Adam/Adam/update_conv2d_91/kernel/ResourceApplyAdam"
  op: "ResourceApplyAdam"
  input: "conv2d_91/kernel"
  input: "training/Adam/conv2d_91/kernel/m"
  input: "training/Adam/conv2d_91/kernel/v"
  input: "training/Adam/Pow"
  input: "training/Adam/Pow_1"
  input: "training/Adam/Identity"
  input: "training/Adam/Identity_1"
  input: "training/Adam/Identity_2"
  input: "training/Adam/Const"
  input: "training/Adam/gradients/gradients/conv2d_91/Conv2D_grad/Conv2DBackpropFilter"
  attr {
    key: "T"
    value {
      type: DT_FLOAT
    }
  }
  attr {
    key: "_class"
    value {
      list {
        s: "loc:@conv2d_91/kernel"
      }
    }
  }
  attr {
    key: "use_locking"
    value {
      b: true
    }
  }
  attr {
    key: "use_nesterov"
    value {
      b: false
    }
  }
}
node {
  name: "training/Adam/Adam/update_conv2d_91/bias/ResourceApplyAdam"
  op: "ResourceApplyAdam"
  input: "conv2d_91/bias"
  input: "training/Adam/conv2d_91/bias/m"
  input: "training/Adam/conv2d_91/bias/v"
  input: "training/Adam/Pow"
  input: "training/Adam/Pow_1"
  input: "training/Adam/Identity"
  input: "training/Adam/Identity_1"
  input: "training/Adam/Identity_2"
  input: "training/Adam/Const"
  input: "training/Adam/gradients/gradients/conv2d_91/BiasAdd_grad/BiasAddGrad"
  attr {
    key: "T"
    value {
      type: DT_FLOAT
    }
  }
  attr {
    key: "_class"
    value {
      list {
        s: "loc:@conv2d_91/bias"
      }
    }
  }
  attr {
    key: "use_locking"
    value {
      b: true
    }
  }
  attr {
    key: "use_nesterov"
    value {
      b: false
    }
  }
}
node {
  name: "training/Adam/Adam/update_conv2d_92/kernel/ResourceApplyAdam"
  op: "ResourceApplyAdam"
  input: "conv2d_92/kernel"
  input: "training/Adam/conv2d_92/kernel/m"
  input: "training/Adam/conv2d_92/kernel/v"
  input: "training/Adam/Pow"
  input: "training/Adam/Pow_1"
  input: "training/Adam/Identity"
  input: "training/Adam/Identity_1"
  input: "training/Adam/Identity_2"
  input: "training/Adam/Const"
  input: "training/Adam/gradients/gradients/conv2d_92/Conv2D_grad/Conv2DBackpropFilter"
  attr {
    key: "T"
    value {
      type: DT_FLOAT
    }
  }
  attr {
    key: "_class"
    value {
      list {
        s: "loc:@conv2d_92/kernel"
      }
    }
  }
  attr {
    key: "use_locking"
    value {
      b: true
    }
  }
  attr {
    key: "use_nesterov"
    value {
      b: false
    }
  }
}
node {
  name: "training/Adam/Adam/update_conv2d_92/bias/ResourceApplyAdam"
  op: "ResourceApplyAdam"
  input: "conv2d_92/bias"
  input: "training/Adam/conv2d_92/bias/m"
  input: "training/Adam/conv2d_92/bias/v"
  input: "training/Adam/Pow"
  input: "training/Adam/Pow_1"
  input: "training/Adam/Identity"
  input: "training/Adam/Identity_1"
  input: "training/Adam/Identity_2"
  input: "training/Adam/Const"
  input: "training/Adam/gradients/gradients/conv2d_92/BiasAdd_grad/BiasAddGrad"
  attr {
    key: "T"
    value {
      type: DT_FLOAT
    }
  }
  attr {
    key: "_class"
    value {
      list {
        s: "loc:@conv2d_92/bias"
      }
    }
  }
  attr {
    key: "use_locking"
    value {
      b: true
    }
  }
  attr {
    key: "use_nesterov"
    value {
      b: false
    }
  }
}
node {
  name: "training/Adam/Adam/update_conv2d_94/kernel/ResourceApplyAdam"
  op: "ResourceApplyAdam"
  input: "conv2d_94/kernel"
  input: "training/Adam/conv2d_94/kernel/m"
  input: "training/Adam/conv2d_94/kernel/v"
  input: "training/Adam/Pow"
  input: "training/Adam/Pow_1"
  input: "training/Adam/Identity"
  input: "training/Adam/Identity_1"
  input: "training/Adam/Identity_2"
  input: "training/Adam/Const"
  input: "training/Adam/gradients/gradients/conv2d_94/Conv2D_grad/Conv2DBackpropFilter"
  attr {
    key: "T"
    value {
      type: DT_FLOAT
    }
  }
  attr {
    key: "_class"
    value {
      list {
        s: "loc:@conv2d_94/kernel"
      }
    }
  }
  attr {
    key: "use_locking"
    value {
      b: true
    }
  }
  attr {
    key: "use_nesterov"
    value {
      b: false
    }
  }
}
node {
  name: "training/Adam/Adam/update_conv2d_94/bias/ResourceApplyAdam"
  op: "ResourceApplyAdam"
  input: "conv2d_94/bias"
  input: "training/Adam/conv2d_94/bias/m"
  input: "training/Adam/conv2d_94/bias/v"
  input: "training/Adam/Pow"
  input: "training/Adam/Pow_1"
  input: "training/Adam/Identity"
  input: "training/Adam/Identity_1"
  input: "training/Adam/Identity_2"
  input: "training/Adam/Const"
  input: "training/Adam/gradients/gradients/conv2d_94/BiasAdd_grad/BiasAddGrad"
  attr {
    key: "T"
    value {
      type: DT_FLOAT
    }
  }
  attr {
    key: "_class"
    value {
      list {
        s: "loc:@conv2d_94/bias"
      }
    }
  }
  attr {
    key: "use_locking"
    value {
      b: true
    }
  }
  attr {
    key: "use_nesterov"
    value {
      b: false
    }
  }
}
node {
  name: "training/Adam/Adam/update_conv2d_96/kernel/ResourceApplyAdam"
  op: "ResourceApplyAdam"
  input: "conv2d_96/kernel"
  input: "training/Adam/conv2d_96/kernel/m"
  input: "training/Adam/conv2d_96/kernel/v"
  input: "training/Adam/Pow"
  input: "training/Adam/Pow_1"
  input: "training/Adam/Identity"
  input: "training/Adam/Identity_1"
  input: "training/Adam/Identity_2"
  input: "training/Adam/Const"
  input: "training/Adam/gradients/gradients/conv2d_96/Conv2D_grad/Conv2DBackpropFilter"
  attr {
    key: "T"
    value {
      type: DT_FLOAT
    }
  }
  attr {
    key: "_class"
    value {
      list {
        s: "loc:@conv2d_96/kernel"
      }
    }
  }
  attr {
    key: "use_locking"
    value {
      b: true
    }
  }
  attr {
    key: "use_nesterov"
    value {
      b: false
    }
  }
}
node {
  name: "training/Adam/Adam/update_conv2d_96/bias/ResourceApplyAdam"
  op: "ResourceApplyAdam"
  input: "conv2d_96/bias"
  input: "training/Adam/conv2d_96/bias/m"
  input: "training/Adam/conv2d_96/bias/v"
  input: "training/Adam/Pow"
  input: "training/Adam/Pow_1"
  input: "training/Adam/Identity"
  input: "training/Adam/Identity_1"
  input: "training/Adam/Identity_2"
  input: "training/Adam/Const"
  input: "training/Adam/gradients/gradients/conv2d_96/BiasAdd_grad/BiasAddGrad"
  attr {
    key: "T"
    value {
      type: DT_FLOAT
    }
  }
  attr {
    key: "_class"
    value {
      list {
        s: "loc:@conv2d_96/bias"
      }
    }
  }
  attr {
    key: "use_locking"
    value {
      b: true
    }
  }
  attr {
    key: "use_nesterov"
    value {
      b: false
    }
  }
}
node {
  name: "training/Adam/Adam/update_conv2d_98/kernel/ResourceApplyAdam"
  op: "ResourceApplyAdam"
  input: "conv2d_98/kernel"
  input: "training/Adam/conv2d_98/kernel/m"
  input: "training/Adam/conv2d_98/kernel/v"
  input: "training/Adam/Pow"
  input: "training/Adam/Pow_1"
  input: "training/Adam/Identity"
  input: "training/Adam/Identity_1"
  input: "training/Adam/Identity_2"
  input: "training/Adam/Const"
  input: "training/Adam/gradients/gradients/conv2d_98/Conv2D_grad/Conv2DBackpropFilter"
  attr {
    key: "T"
    value {
      type: DT_FLOAT
    }
  }
  attr {
    key: "_class"
    value {
      list {
        s: "loc:@conv2d_98/kernel"
      }
    }
  }
  attr {
    key: "use_locking"
    value {
      b: true
    }
  }
  attr {
    key: "use_nesterov"
    value {
      b: false
    }
  }
}
node {
  name: "training/Adam/Adam/update_conv2d_98/bias/ResourceApplyAdam"
  op: "ResourceApplyAdam"
  input: "conv2d_98/bias"
  input: "training/Adam/conv2d_98/bias/m"
  input: "training/Adam/conv2d_98/bias/v"
  input: "training/Adam/Pow"
  input: "training/Adam/Pow_1"
  input: "training/Adam/Identity"
  input: "training/Adam/Identity_1"
  input: "training/Adam/Identity_2"
  input: "training/Adam/Const"
  input: "training/Adam/gradients/gradients/conv2d_98/BiasAdd_grad/BiasAddGrad"
  attr {
    key: "T"
    value {
      type: DT_FLOAT
    }
  }
  attr {
    key: "_class"
    value {
      list {
        s: "loc:@conv2d_98/bias"
      }
    }
  }
  attr {
    key: "use_locking"
    value {
      b: true
    }
  }
  attr {
    key: "use_nesterov"
    value {
      b: false
    }
  }
}
node {
  name: "training/Adam/Adam/update_conv2d_93/kernel/ResourceApplyAdam"
  op: "ResourceApplyAdam"
  input: "conv2d_93/kernel"
  input: "training/Adam/conv2d_93/kernel/m"
  input: "training/Adam/conv2d_93/kernel/v"
  input: "training/Adam/Pow"
  input: "training/Adam/Pow_1"
  input: "training/Adam/Identity"
  input: "training/Adam/Identity_1"
  input: "training/Adam/Identity_2"
  input: "training/Adam/Const"
  input: "training/Adam/gradients/gradients/conv2d_93/Conv2D_grad/Conv2DBackpropFilter"
  attr {
    key: "T"
    value {
      type: DT_FLOAT
    }
  }
  attr {
    key: "_class"
    value {
      list {
        s: "loc:@conv2d_93/kernel"
      }
    }
  }
  attr {
    key: "use_locking"
    value {
      b: true
    }
  }
  attr {
    key: "use_nesterov"
    value {
      b: false
    }
  }
}
node {
  name: "training/Adam/Adam/update_conv2d_93/bias/ResourceApplyAdam"
  op: "ResourceApplyAdam"
  input: "conv2d_93/bias"
  input: "training/Adam/conv2d_93/bias/m"
  input: "training/Adam/conv2d_93/bias/v"
  input: "training/Adam/Pow"
  input: "training/Adam/Pow_1"
  input: "training/Adam/Identity"
  input: "training/Adam/Identity_1"
  input: "training/Adam/Identity_2"
  input: "training/Adam/Const"
  input: "training/Adam/gradients/gradients/conv2d_93/BiasAdd_grad/BiasAddGrad"
  attr {
    key: "T"
    value {
      type: DT_FLOAT
    }
  }
  attr {
    key: "_class"
    value {
      list {
        s: "loc:@conv2d_93/bias"
      }
    }
  }
  attr {
    key: "use_locking"
    value {
      b: true
    }
  }
  attr {
    key: "use_nesterov"
    value {
      b: false
    }
  }
}
node {
  name: "training/Adam/Adam/update_conv2d_95/kernel/ResourceApplyAdam"
  op: "ResourceApplyAdam"
  input: "conv2d_95/kernel"
  input: "training/Adam/conv2d_95/kernel/m"
  input: "training/Adam/conv2d_95/kernel/v"
  input: "training/Adam/Pow"
  input: "training/Adam/Pow_1"
  input: "training/Adam/Identity"
  input: "training/Adam/Identity_1"
  input: "training/Adam/Identity_2"
  input: "training/Adam/Const"
  input: "training/Adam/gradients/gradients/conv2d_95/Conv2D_grad/Conv2DBackpropFilter"
  attr {
    key: "T"
    value {
      type: DT_FLOAT
    }
  }
  attr {
    key: "_class"
    value {
      list {
        s: "loc:@conv2d_95/kernel"
      }
    }
  }
  attr {
    key: "use_locking"
    value {
      b: true
    }
  }
  attr {
    key: "use_nesterov"
    value {
      b: false
    }
  }
}
node {
  name: "training/Adam/Adam/update_conv2d_95/bias/ResourceApplyAdam"
  op: "ResourceApplyAdam"
  input: "conv2d_95/bias"
  input: "training/Adam/conv2d_95/bias/m"
  input: "training/Adam/conv2d_95/bias/v"
  input: "training/Adam/Pow"
  input: "training/Adam/Pow_1"
  input: "training/Adam/Identity"
  input: "training/Adam/Identity_1"
  input: "training/Adam/Identity_2"
  input: "training/Adam/Const"
  input: "training/Adam/gradients/gradients/conv2d_95/BiasAdd_grad/BiasAddGrad"
  attr {
    key: "T"
    value {
      type: DT_FLOAT
    }
  }
  attr {
    key: "_class"
    value {
      list {
        s: "loc:@conv2d_95/bias"
      }
    }
  }
  attr {
    key: "use_locking"
    value {
      b: true
    }
  }
  attr {
    key: "use_nesterov"
    value {
      b: false
    }
  }
}
node {
  name: "training/Adam/Adam/update_conv2d_97/kernel/ResourceApplyAdam"
  op: "ResourceApplyAdam"
  input: "conv2d_97/kernel"
  input: "training/Adam/conv2d_97/kernel/m"
  input: "training/Adam/conv2d_97/kernel/v"
  input: "training/Adam/Pow"
  input: "training/Adam/Pow_1"
  input: "training/Adam/Identity"
  input: "training/Adam/Identity_1"
  input: "training/Adam/Identity_2"
  input: "training/Adam/Const"
  input: "training/Adam/gradients/gradients/conv2d_97/Conv2D_grad/Conv2DBackpropFilter"
  attr {
    key: "T"
    value {
      type: DT_FLOAT
    }
  }
  attr {
    key: "_class"
    value {
      list {
        s: "loc:@conv2d_97/kernel"
      }
    }
  }
  attr {
    key: "use_locking"
    value {
      b: true
    }
  }
  attr {
    key: "use_nesterov"
    value {
      b: false
    }
  }
}
node {
  name: "training/Adam/Adam/update_conv2d_97/bias/ResourceApplyAdam"
  op: "ResourceApplyAdam"
  input: "conv2d_97/bias"
  input: "training/Adam/conv2d_97/bias/m"
  input: "training/Adam/conv2d_97/bias/v"
  input: "training/Adam/Pow"
  input: "training/Adam/Pow_1"
  input: "training/Adam/Identity"
  input: "training/Adam/Identity_1"
  input: "training/Adam/Identity_2"
  input: "training/Adam/Const"
  input: "training/Adam/gradients/gradients/conv2d_97/BiasAdd_grad/BiasAddGrad"
  attr {
    key: "T"
    value {
      type: DT_FLOAT
    }
  }
  attr {
    key: "_class"
    value {
      list {
        s: "loc:@conv2d_97/bias"
      }
    }
  }
  attr {
    key: "use_locking"
    value {
      b: true
    }
  }
  attr {
    key: "use_nesterov"
    value {
      b: false
    }
  }
}
node {
  name: "training/Adam/Adam/update_conv2d_100/kernel/ResourceApplyAdam"
  op: "ResourceApplyAdam"
  input: "conv2d_100/kernel"
  input: "training/Adam/conv2d_100/kernel/m"
  input: "training/Adam/conv2d_100/kernel/v"
  input: "training/Adam/Pow"
  input: "training/Adam/Pow_1"
  input: "training/Adam/Identity"
  input: "training/Adam/Identity_1"
  input: "training/Adam/Identity_2"
  input: "training/Adam/Const"
  input: "training/Adam/gradients/gradients/conv2d_100/Conv2D_grad/Conv2DBackpropFilter"
  attr {
    key: "T"
    value {
      type: DT_FLOAT
    }
  }
  attr {
    key: "_class"
    value {
      list {
        s: "loc:@conv2d_100/kernel"
      }
    }
  }
  attr {
    key: "use_locking"
    value {
      b: true
    }
  }
  attr {
    key: "use_nesterov"
    value {
      b: false
    }
  }
}
node {
  name: "training/Adam/Adam/update_conv2d_100/bias/ResourceApplyAdam"
  op: "ResourceApplyAdam"
  input: "conv2d_100/bias"
  input: "training/Adam/conv2d_100/bias/m"
  input: "training/Adam/conv2d_100/bias/v"
  input: "training/Adam/Pow"
  input: "training/Adam/Pow_1"
  input: "training/Adam/Identity"
  input: "training/Adam/Identity_1"
  input: "training/Adam/Identity_2"
  input: "training/Adam/Const"
  input: "training/Adam/gradients/gradients/conv2d_100/BiasAdd_grad/BiasAddGrad"
  attr {
    key: "T"
    value {
      type: DT_FLOAT
    }
  }
  attr {
    key: "_class"
    value {
      list {
        s: "loc:@conv2d_100/bias"
      }
    }
  }
  attr {
    key: "use_locking"
    value {
      b: true
    }
  }
  attr {
    key: "use_nesterov"
    value {
      b: false
    }
  }
}
node {
  name: "training/Adam/Adam/update_conv2d_102/kernel/ResourceApplyAdam"
  op: "ResourceApplyAdam"
  input: "conv2d_102/kernel"
  input: "training/Adam/conv2d_102/kernel/m"
  input: "training/Adam/conv2d_102/kernel/v"
  input: "training/Adam/Pow"
  input: "training/Adam/Pow_1"
  input: "training/Adam/Identity"
  input: "training/Adam/Identity_1"
  input: "training/Adam/Identity_2"
  input: "training/Adam/Const"
  input: "training/Adam/gradients/gradients/conv2d_102/Conv2D_grad/Conv2DBackpropFilter"
  attr {
    key: "T"
    value {
      type: DT_FLOAT
    }
  }
  attr {
    key: "_class"
    value {
      list {
        s: "loc:@conv2d_102/kernel"
      }
    }
  }
  attr {
    key: "use_locking"
    value {
      b: true
    }
  }
  attr {
    key: "use_nesterov"
    value {
      b: false
    }
  }
}
node {
  name: "training/Adam/Adam/update_conv2d_102/bias/ResourceApplyAdam"
  op: "ResourceApplyAdam"
  input: "conv2d_102/bias"
  input: "training/Adam/conv2d_102/bias/m"
  input: "training/Adam/conv2d_102/bias/v"
  input: "training/Adam/Pow"
  input: "training/Adam/Pow_1"
  input: "training/Adam/Identity"
  input: "training/Adam/Identity_1"
  input: "training/Adam/Identity_2"
  input: "training/Adam/Const"
  input: "training/Adam/gradients/gradients/conv2d_102/BiasAdd_grad/BiasAddGrad"
  attr {
    key: "T"
    value {
      type: DT_FLOAT
    }
  }
  attr {
    key: "_class"
    value {
      list {
        s: "loc:@conv2d_102/bias"
      }
    }
  }
  attr {
    key: "use_locking"
    value {
      b: true
    }
  }
  attr {
    key: "use_nesterov"
    value {
      b: false
    }
  }
}
node {
  name: "training/Adam/Adam/update_conv2d_104/kernel/ResourceApplyAdam"
  op: "ResourceApplyAdam"
  input: "conv2d_104/kernel"
  input: "training/Adam/conv2d_104/kernel/m"
  input: "training/Adam/conv2d_104/kernel/v"
  input: "training/Adam/Pow"
  input: "training/Adam/Pow_1"
  input: "training/Adam/Identity"
  input: "training/Adam/Identity_1"
  input: "training/Adam/Identity_2"
  input: "training/Adam/Const"
  input: "training/Adam/gradients/gradients/conv2d_104/Conv2D_grad/Conv2DBackpropFilter"
  attr {
    key: "T"
    value {
      type: DT_FLOAT
    }
  }
  attr {
    key: "_class"
    value {
      list {
        s: "loc:@conv2d_104/kernel"
      }
    }
  }
  attr {
    key: "use_locking"
    value {
      b: true
    }
  }
  attr {
    key: "use_nesterov"
    value {
      b: false
    }
  }
}
node {
  name: "training/Adam/Adam/update_conv2d_104/bias/ResourceApplyAdam"
  op: "ResourceApplyAdam"
  input: "conv2d_104/bias"
  input: "training/Adam/conv2d_104/bias/m"
  input: "training/Adam/conv2d_104/bias/v"
  input: "training/Adam/Pow"
  input: "training/Adam/Pow_1"
  input: "training/Adam/Identity"
  input: "training/Adam/Identity_1"
  input: "training/Adam/Identity_2"
  input: "training/Adam/Const"
  input: "training/Adam/gradients/gradients/conv2d_104/BiasAdd_grad/BiasAddGrad"
  attr {
    key: "T"
    value {
      type: DT_FLOAT
    }
  }
  attr {
    key: "_class"
    value {
      list {
        s: "loc:@conv2d_104/bias"
      }
    }
  }
  attr {
    key: "use_locking"
    value {
      b: true
    }
  }
  attr {
    key: "use_nesterov"
    value {
      b: false
    }
  }
}
node {
  name: "training/Adam/Adam/update_conv2d_99/kernel/ResourceApplyAdam"
  op: "ResourceApplyAdam"
  input: "conv2d_99/kernel"
  input: "training/Adam/conv2d_99/kernel/m"
  input: "training/Adam/conv2d_99/kernel/v"
  input: "training/Adam/Pow"
  input: "training/Adam/Pow_1"
  input: "training/Adam/Identity"
  input: "training/Adam/Identity_1"
  input: "training/Adam/Identity_2"
  input: "training/Adam/Const"
  input: "training/Adam/gradients/gradients/conv2d_99/Conv2D_grad/Conv2DBackpropFilter"
  attr {
    key: "T"
    value {
      type: DT_FLOAT
    }
  }
  attr {
    key: "_class"
    value {
      list {
        s: "loc:@conv2d_99/kernel"
      }
    }
  }
  attr {
    key: "use_locking"
    value {
      b: true
    }
  }
  attr {
    key: "use_nesterov"
    value {
      b: false
    }
  }
}
node {
  name: "training/Adam/Adam/update_conv2d_99/bias/ResourceApplyAdam"
  op: "ResourceApplyAdam"
  input: "conv2d_99/bias"
  input: "training/Adam/conv2d_99/bias/m"
  input: "training/Adam/conv2d_99/bias/v"
  input: "training/Adam/Pow"
  input: "training/Adam/Pow_1"
  input: "training/Adam/Identity"
  input: "training/Adam/Identity_1"
  input: "training/Adam/Identity_2"
  input: "training/Adam/Const"
  input: "training/Adam/gradients/gradients/conv2d_99/BiasAdd_grad/BiasAddGrad"
  attr {
    key: "T"
    value {
      type: DT_FLOAT
    }
  }
  attr {
    key: "_class"
    value {
      list {
        s: "loc:@conv2d_99/bias"
      }
    }
  }
  attr {
    key: "use_locking"
    value {
      b: true
    }
  }
  attr {
    key: "use_nesterov"
    value {
      b: false
    }
  }
}
node {
  name: "training/Adam/Adam/update_conv2d_101/kernel/ResourceApplyAdam"
  op: "ResourceApplyAdam"
  input: "conv2d_101/kernel"
  input: "training/Adam/conv2d_101/kernel/m"
  input: "training/Adam/conv2d_101/kernel/v"
  input: "training/Adam/Pow"
  input: "training/Adam/Pow_1"
  input: "training/Adam/Identity"
  input: "training/Adam/Identity_1"
  input: "training/Adam/Identity_2"
  input: "training/Adam/Const"
  input: "training/Adam/gradients/gradients/conv2d_101/Conv2D_grad/Conv2DBackpropFilter"
  attr {
    key: "T"
    value {
      type: DT_FLOAT
    }
  }
  attr {
    key: "_class"
    value {
      list {
        s: "loc:@conv2d_101/kernel"
      }
    }
  }
  attr {
    key: "use_locking"
    value {
      b: true
    }
  }
  attr {
    key: "use_nesterov"
    value {
      b: false
    }
  }
}
node {
  name: "training/Adam/Adam/update_conv2d_101/bias/ResourceApplyAdam"
  op: "ResourceApplyAdam"
  input: "conv2d_101/bias"
  input: "training/Adam/conv2d_101/bias/m"
  input: "training/Adam/conv2d_101/bias/v"
  input: "training/Adam/Pow"
  input: "training/Adam/Pow_1"
  input: "training/Adam/Identity"
  input: "training/Adam/Identity_1"
  input: "training/Adam/Identity_2"
  input: "training/Adam/Const"
  input: "training/Adam/gradients/gradients/conv2d_101/BiasAdd_grad/BiasAddGrad"
  attr {
    key: "T"
    value {
      type: DT_FLOAT
    }
  }
  attr {
    key: "_class"
    value {
      list {
        s: "loc:@conv2d_101/bias"
      }
    }
  }
  attr {
    key: "use_locking"
    value {
      b: true
    }
  }
  attr {
    key: "use_nesterov"
    value {
      b: false
    }
  }
}
node {
  name: "training/Adam/Adam/update_conv2d_103/kernel/ResourceApplyAdam"
  op: "ResourceApplyAdam"
  input: "conv2d_103/kernel"
  input: "training/Adam/conv2d_103/kernel/m"
  input: "training/Adam/conv2d_103/kernel/v"
  input: "training/Adam/Pow"
  input: "training/Adam/Pow_1"
  input: "training/Adam/Identity"
  input: "training/Adam/Identity_1"
  input: "training/Adam/Identity_2"
  input: "training/Adam/Const"
  input: "training/Adam/gradients/gradients/conv2d_103/Conv2D_grad/Conv2DBackpropFilter"
  attr {
    key: "T"
    value {
      type: DT_FLOAT
    }
  }
  attr {
    key: "_class"
    value {
      list {
        s: "loc:@conv2d_103/kernel"
      }
    }
  }
  attr {
    key: "use_locking"
    value {
      b: true
    }
  }
  attr {
    key: "use_nesterov"
    value {
      b: false
    }
  }
}
node {
  name: "training/Adam/Adam/update_conv2d_103/bias/ResourceApplyAdam"
  op: "ResourceApplyAdam"
  input: "conv2d_103/bias"
  input: "training/Adam/conv2d_103/bias/m"
  input: "training/Adam/conv2d_103/bias/v"
  input: "training/Adam/Pow"
  input: "training/Adam/Pow_1"
  input: "training/Adam/Identity"
  input: "training/Adam/Identity_1"
  input: "training/Adam/Identity_2"
  input: "training/Adam/Const"
  input: "training/Adam/gradients/gradients/conv2d_103/BiasAdd_grad/BiasAddGrad"
  attr {
    key: "T"
    value {
      type: DT_FLOAT
    }
  }
  attr {
    key: "_class"
    value {
      list {
        s: "loc:@conv2d_103/bias"
      }
    }
  }
  attr {
    key: "use_locking"
    value {
      b: true
    }
  }
  attr {
    key: "use_nesterov"
    value {
      b: false
    }
  }
}
node {
  name: "training/Adam/Adam/update_dense_6/kernel/ResourceApplyAdam"
  op: "ResourceApplyAdam"
  input: "dense_6/kernel"
  input: "training/Adam/dense_6/kernel/m"
  input: "training/Adam/dense_6/kernel/v"
  input: "training/Adam/Pow"
  input: "training/Adam/Pow_1"
  input: "training/Adam/Identity"
  input: "training/Adam/Identity_1"
  input: "training/Adam/Identity_2"
  input: "training/Adam/Const"
  input: "training/Adam/gradients/gradients/dense_6/MatMul_grad/MatMul_1"
  attr {
    key: "T"
    value {
      type: DT_FLOAT
    }
  }
  attr {
    key: "_class"
    value {
      list {
        s: "loc:@dense_6/kernel"
      }
    }
  }
  attr {
    key: "use_locking"
    value {
      b: true
    }
  }
  attr {
    key: "use_nesterov"
    value {
      b: false
    }
  }
}
node {
  name: "training/Adam/Adam/update_dense_6/bias/ResourceApplyAdam"
  op: "ResourceApplyAdam"
  input: "dense_6/bias"
  input: "training/Adam/dense_6/bias/m"
  input: "training/Adam/dense_6/bias/v"
  input: "training/Adam/Pow"
  input: "training/Adam/Pow_1"
  input: "training/Adam/Identity"
  input: "training/Adam/Identity_1"
  input: "training/Adam/Identity_2"
  input: "training/Adam/Const"
  input: "training/Adam/gradients/gradients/dense_6/BiasAdd_grad/BiasAddGrad"
  attr {
    key: "T"
    value {
      type: DT_FLOAT
    }
  }
  attr {
    key: "_class"
    value {
      list {
        s: "loc:@dense_6/bias"
      }
    }
  }
  attr {
    key: "use_locking"
    value {
      b: true
    }
  }
  attr {
    key: "use_nesterov"
    value {
      b: false
    }
  }
}
node {
  name: "training/Adam/Adam/Const"
  op: "Const"
  input: "^training/Adam/Adam/update_conv2d_100/bias/ResourceApplyAdam"
  input: "^training/Adam/Adam/update_conv2d_100/kernel/ResourceApplyAdam"
  input: "^training/Adam/Adam/update_conv2d_101/bias/ResourceApplyAdam"
  input: "^training/Adam/Adam/update_conv2d_101/kernel/ResourceApplyAdam"
  input: "^training/Adam/Adam/update_conv2d_102/bias/ResourceApplyAdam"
  input: "^training/Adam/Adam/update_conv2d_102/kernel/ResourceApplyAdam"
  input: "^training/Adam/Adam/update_conv2d_103/bias/ResourceApplyAdam"
  input: "^training/Adam/Adam/update_conv2d_103/kernel/ResourceApplyAdam"
  input: "^training/Adam/Adam/update_conv2d_104/bias/ResourceApplyAdam"
  input: "^training/Adam/Adam/update_conv2d_104/kernel/ResourceApplyAdam"
  input: "^training/Adam/Adam/update_conv2d_90/bias/ResourceApplyAdam"
  input: "^training/Adam/Adam/update_conv2d_90/kernel/ResourceApplyAdam"
  input: "^training/Adam/Adam/update_conv2d_91/bias/ResourceApplyAdam"
  input: "^training/Adam/Adam/update_conv2d_91/kernel/ResourceApplyAdam"
  input: "^training/Adam/Adam/update_conv2d_92/bias/ResourceApplyAdam"
  input: "^training/Adam/Adam/update_conv2d_92/kernel/ResourceApplyAdam"
  input: "^training/Adam/Adam/update_conv2d_93/bias/ResourceApplyAdam"
  input: "^training/Adam/Adam/update_conv2d_93/kernel/ResourceApplyAdam"
  input: "^training/Adam/Adam/update_conv2d_94/bias/ResourceApplyAdam"
  input: "^training/Adam/Adam/update_conv2d_94/kernel/ResourceApplyAdam"
  input: "^training/Adam/Adam/update_conv2d_95/bias/ResourceApplyAdam"
  input: "^training/Adam/Adam/update_conv2d_95/kernel/ResourceApplyAdam"
  input: "^training/Adam/Adam/update_conv2d_96/bias/ResourceApplyAdam"
  input: "^training/Adam/Adam/update_conv2d_96/kernel/ResourceApplyAdam"
  input: "^training/Adam/Adam/update_conv2d_97/bias/ResourceApplyAdam"
  input: "^training/Adam/Adam/update_conv2d_97/kernel/ResourceApplyAdam"
  input: "^training/Adam/Adam/update_conv2d_98/bias/ResourceApplyAdam"
  input: "^training/Adam/Adam/update_conv2d_98/kernel/ResourceApplyAdam"
  input: "^training/Adam/Adam/update_conv2d_99/bias/ResourceApplyAdam"
  input: "^training/Adam/Adam/update_conv2d_99/kernel/ResourceApplyAdam"
  input: "^training/Adam/Adam/update_dense_6/bias/ResourceApplyAdam"
  input: "^training/Adam/Adam/update_dense_6/kernel/ResourceApplyAdam"
  attr {
    key: "dtype"
    value {
      type: DT_INT64
    }
  }
  attr {
    key: "value"
    value {
      tensor {
        dtype: DT_INT64
        tensor_shape {
        }
        int64_val: 1
      }
    }
  }
}
node {
  name: "training/Adam/Adam/AssignAddVariableOp"
  op: "AssignAddVariableOp"
  input: "training/Adam/iter"
  input: "training/Adam/Adam/Const"
  attr {
    key: "dtype"
    value {
      type: DT_INT64
    }
  }
}
node {
  name: "training/Adam/Adam/ReadVariableOp"
  op: "ReadVariableOp"
  input: "training/Adam/iter"
  input: "^training/Adam/Adam/AssignAddVariableOp"
  input: "^training/Adam/Adam/update_conv2d_100/bias/ResourceApplyAdam"
  input: "^training/Adam/Adam/update_conv2d_100/kernel/ResourceApplyAdam"
  input: "^training/Adam/Adam/update_conv2d_101/bias/ResourceApplyAdam"
  input: "^training/Adam/Adam/update_conv2d_101/kernel/ResourceApplyAdam"
  input: "^training/Adam/Adam/update_conv2d_102/bias/ResourceApplyAdam"
  input: "^training/Adam/Adam/update_conv2d_102/kernel/ResourceApplyAdam"
  input: "^training/Adam/Adam/update_conv2d_103/bias/ResourceApplyAdam"
  input: "^training/Adam/Adam/update_conv2d_103/kernel/ResourceApplyAdam"
  input: "^training/Adam/Adam/update_conv2d_104/bias/ResourceApplyAdam"
  input: "^training/Adam/Adam/update_conv2d_104/kernel/ResourceApplyAdam"
  input: "^training/Adam/Adam/update_conv2d_90/bias/ResourceApplyAdam"
  input: "^training/Adam/Adam/update_conv2d_90/kernel/ResourceApplyAdam"
  input: "^training/Adam/Adam/update_conv2d_91/bias/ResourceApplyAdam"
  input: "^training/Adam/Adam/update_conv2d_91/kernel/ResourceApplyAdam"
  input: "^training/Adam/Adam/update_conv2d_92/bias/ResourceApplyAdam"
  input: "^training/Adam/Adam/update_conv2d_92/kernel/ResourceApplyAdam"
  input: "^training/Adam/Adam/update_conv2d_93/bias/ResourceApplyAdam"
  input: "^training/Adam/Adam/update_conv2d_93/kernel/ResourceApplyAdam"
  input: "^training/Adam/Adam/update_conv2d_94/bias/ResourceApplyAdam"
  input: "^training/Adam/Adam/update_conv2d_94/kernel/ResourceApplyAdam"
  input: "^training/Adam/Adam/update_conv2d_95/bias/ResourceApplyAdam"
  input: "^training/Adam/Adam/update_conv2d_95/kernel/ResourceApplyAdam"
  input: "^training/Adam/Adam/update_conv2d_96/bias/ResourceApplyAdam"
  input: "^training/Adam/Adam/update_conv2d_96/kernel/ResourceApplyAdam"
  input: "^training/Adam/Adam/update_conv2d_97/bias/ResourceApplyAdam"
  input: "^training/Adam/Adam/update_conv2d_97/kernel/ResourceApplyAdam"
  input: "^training/Adam/Adam/update_conv2d_98/bias/ResourceApplyAdam"
  input: "^training/Adam/Adam/update_conv2d_98/kernel/ResourceApplyAdam"
  input: "^training/Adam/Adam/update_conv2d_99/bias/ResourceApplyAdam"
  input: "^training/Adam/Adam/update_conv2d_99/kernel/ResourceApplyAdam"
  input: "^training/Adam/Adam/update_dense_6/bias/ResourceApplyAdam"
  input: "^training/Adam/Adam/update_dense_6/kernel/ResourceApplyAdam"
  attr {
    key: "dtype"
    value {
      type: DT_INT64
    }
  }
}
node {
  name: "training_1/group_deps"
  op: "NoOp"
  input: "^loss/mul"
  input: "^training/Adam/Adam/AssignAddVariableOp"
}
node {
  name: "VarIsInitializedOp_32"
  op: "VarIsInitializedOp"
  input: "training/Adam/conv2d_102/bias/v"
}
node {
  name: "VarIsInitializedOp_33"
  op: "VarIsInitializedOp"
  input: "training/Adam/conv2d_103/bias/v"
}
node {
  name: "VarIsInitializedOp_34"
  op: "VarIsInitializedOp"
  input: "training/Adam/conv2d_102/kernel/m"
}
node {
  name: "VarIsInitializedOp_35"
  op: "VarIsInitializedOp"
  input: "training/Adam/conv2d_104/kernel/m"
}
node {
  name: "VarIsInitializedOp_36"
  op: "VarIsInitializedOp"
  input: "training/Adam/conv2d_103/kernel/m"
}
node {
  name: "VarIsInitializedOp_37"
  op: "VarIsInitializedOp"
  input: "training/Adam/conv2d_98/kernel/v"
}
node {
  name: "VarIsInitializedOp_38"
  op: "VarIsInitializedOp"
  input: "training/Adam/conv2d_100/kernel/v"
}
node {
  name: "VarIsInitializedOp_39"
  op: "VarIsInitializedOp"
  input: "training/Adam/conv2d_95/bias/m"
}
node {
  name: "VarIsInitializedOp_40"
  op: "VarIsInitializedOp"
  input: "training/Adam/conv2d_91/bias/v"
}
node {
  name: "VarIsInitializedOp_41"
  op: "VarIsInitializedOp"
  input: "total"
}
node {
  name: "VarIsInitializedOp_42"
  op: "VarIsInitializedOp"
  input: "training/Adam/decay"
}
node {
  name: "VarIsInitializedOp_43"
  op: "VarIsInitializedOp"
  input: "training/Adam/conv2d_94/bias/m"
}
node {
  name: "VarIsInitializedOp_44"
  op: "VarIsInitializedOp"
  input: "training/Adam/conv2d_94/kernel/m"
}
node {
  name: "VarIsInitializedOp_45"
  op: "VarIsInitializedOp"
  input: "training/Adam/conv2d_91/kernel/v"
}
node {
  name: "VarIsInitializedOp_46"
  op: "VarIsInitializedOp"
  input: "training/Adam/conv2d_99/kernel/m"
}
node {
  name: "VarIsInitializedOp_47"
  op: "VarIsInitializedOp"
  input: "training/Adam/conv2d_94/kernel/v"
}
node {
  name: "VarIsInitializedOp_48"
  op: "VarIsInitializedOp"
  input: "training/Adam/conv2d_92/kernel/m"
}
node {
  name: "VarIsInitializedOp_49"
  op: "VarIsInitializedOp"
  input: "training/Adam/beta_1"
}
node {
  name: "VarIsInitializedOp_50"
  op: "VarIsInitializedOp"
  input: "training/Adam/conv2d_102/kernel/v"
}
node {
  name: "VarIsInitializedOp_51"
  op: "VarIsInitializedOp"
  input: "training/Adam/conv2d_99/bias/m"
}
node {
  name: "VarIsInitializedOp_52"
  op: "VarIsInitializedOp"
  input: "training/Adam/conv2d_97/bias/m"
}
node {
  name: "VarIsInitializedOp_53"
  op: "VarIsInitializedOp"
  input: "training/Adam/conv2d_101/bias/m"
}
node {
  name: "VarIsInitializedOp_54"
  op: "VarIsInitializedOp"
  input: "training/Adam/conv2d_92/bias/v"
}
node {
  name: "VarIsInitializedOp_55"
  op: "VarIsInitializedOp"
  input: "training/Adam/conv2d_93/bias/v"
}
node {
  name: "VarIsInitializedOp_56"
  op: "VarIsInitializedOp"
  input: "training/Adam/conv2d_97/kernel/v"
}
node {
  name: "VarIsInitializedOp_57"
  op: "VarIsInitializedOp"
  input: "training/Adam/conv2d_104/bias/v"
}
node {
  name: "VarIsInitializedOp_58"
  op: "VarIsInitializedOp"
  input: "training/Adam/conv2d_97/bias/v"
}
node {
  name: "VarIsInitializedOp_59"
  op: "VarIsInitializedOp"
  input: "training/Adam/conv2d_97/kernel/m"
}
node {
  name: "VarIsInitializedOp_60"
  op: "VarIsInitializedOp"
  input: "training/Adam/conv2d_92/kernel/v"
}
node {
  name: "VarIsInitializedOp_61"
  op: "VarIsInitializedOp"
  input: "training/Adam/conv2d_93/kernel/v"
}
node {
  name: "VarIsInitializedOp_62"
  op: "VarIsInitializedOp"
  input: "training/Adam/conv2d_95/kernel/m"
}
node {
  name: "VarIsInitializedOp_63"
  op: "VarIsInitializedOp"
  input: "training/Adam/conv2d_104/bias/m"
}
node {
  name: "VarIsInitializedOp_64"
  op: "VarIsInitializedOp"
  input: "training/Adam/iter"
}
node {
  name: "VarIsInitializedOp_65"
  op: "VarIsInitializedOp"
  input: "training/Adam/learning_rate"
}
node {
  name: "VarIsInitializedOp_66"
  op: "VarIsInitializedOp"
  input: "training/Adam/conv2d_90/bias/m"
}
node {
  name: "VarIsInitializedOp_67"
  op: "VarIsInitializedOp"
  input: "training/Adam/conv2d_101/bias/v"
}
node {
  name: "VarIsInitializedOp_68"
  op: "VarIsInitializedOp"
  input: "training/Adam/conv2d_90/kernel/m"
}
node {
  name: "VarIsInitializedOp_69"
  op: "VarIsInitializedOp"
  input: "training/Adam/conv2d_95/bias/v"
}
node {
  name: "VarIsInitializedOp_70"
  op: "VarIsInitializedOp"
  input: "training/Adam/conv2d_101/kernel/v"
}
node {
  name: "VarIsInitializedOp_71"
  op: "VarIsInitializedOp"
  input: "training/Adam/conv2d_101/kernel/m"
}
node {
  name: "VarIsInitializedOp_72"
  op: "VarIsInitializedOp"
  input: "training/Adam/conv2d_95/kernel/v"
}
node {
  name: "VarIsInitializedOp_73"
  op: "VarIsInitializedOp"
  input: "training/Adam/conv2d_103/kernel/v"
}
node {
  name: "VarIsInitializedOp_74"
  op: "VarIsInitializedOp"
  input: "training/Adam/conv2d_96/kernel/m"
}
node {
  name: "VarIsInitializedOp_75"
  op: "VarIsInitializedOp"
  input: "training/Adam/conv2d_103/bias/m"
}
node {
  name: "VarIsInitializedOp_76"
  op: "VarIsInitializedOp"
  input: "training/Adam/conv2d_91/bias/m"
}
node {
  name: "VarIsInitializedOp_77"
  op: "VarIsInitializedOp"
  input: "training/Adam/conv2d_98/bias/m"
}
node {
  name: "VarIsInitializedOp_78"
  op: "VarIsInitializedOp"
  input: "training/Adam/conv2d_102/bias/m"
}
node {
  name: "VarIsInitializedOp_79"
  op: "VarIsInitializedOp"
  input: "training/Adam/conv2d_104/kernel/v"
}
node {
  name: "VarIsInitializedOp_80"
  op: "VarIsInitializedOp"
  input: "training/Adam/dense_6/bias/v"
}
node {
  name: "VarIsInitializedOp_81"
  op: "VarIsInitializedOp"
  input: "training/Adam/conv2d_91/kernel/m"
}
node {
  name: "VarIsInitializedOp_82"
  op: "VarIsInitializedOp"
  input: "training/Adam/conv2d_98/kernel/m"
}
node {
  name: "VarIsInitializedOp_83"
  op: "VarIsInitializedOp"
  input: "count"
}
node {
  name: "VarIsInitializedOp_84"
  op: "VarIsInitializedOp"
  input: "training/Adam/conv2d_100/kernel/m"
}
node {
  name: "VarIsInitializedOp_85"
  op: "VarIsInitializedOp"
  input: "training/Adam/conv2d_99/bias/v"
}
node {
  name: "VarIsInitializedOp_86"
  op: "VarIsInitializedOp"
  input: "training/Adam/dense_6/kernel/v"
}
node {
  name: "VarIsInitializedOp_87"
  op: "VarIsInitializedOp"
  input: "training/Adam/conv2d_99/kernel/v"
}
node {
  name: "VarIsInitializedOp_88"
  op: "VarIsInitializedOp"
  input: "training/Adam/beta_2"
}
node {
  name: "VarIsInitializedOp_89"
  op: "VarIsInitializedOp"
  input: "training/Adam/conv2d_93/bias/m"
}
node {
  name: "VarIsInitializedOp_90"
  op: "VarIsInitializedOp"
  input: "training/Adam/conv2d_100/bias/m"
}
node {
  name: "VarIsInitializedOp_91"
  op: "VarIsInitializedOp"
  input: "training/Adam/dense_6/bias/m"
}
node {
  name: "VarIsInitializedOp_92"
  op: "VarIsInitializedOp"
  input: "training/Adam/conv2d_90/bias/v"
}
node {
  name: "VarIsInitializedOp_93"
  op: "VarIsInitializedOp"
  input: "training/Adam/conv2d_96/bias/v"
}
node {
  name: "VarIsInitializedOp_94"
  op: "VarIsInitializedOp"
  input: "training/Adam/conv2d_98/bias/v"
}
node {
  name: "VarIsInitializedOp_95"
  op: "VarIsInitializedOp"
  input: "training/Adam/conv2d_100/bias/v"
}
node {
  name: "VarIsInitializedOp_96"
  op: "VarIsInitializedOp"
  input: "training/Adam/conv2d_90/kernel/v"
}
node {
  name: "VarIsInitializedOp_97"
  op: "VarIsInitializedOp"
  input: "training/Adam/conv2d_93/kernel/m"
}
node {
  name: "VarIsInitializedOp_98"
  op: "VarIsInitializedOp"
  input: "training/Adam/conv2d_96/kernel/v"
}
node {
  name: "VarIsInitializedOp_99"
  op: "VarIsInitializedOp"
  input: "training/Adam/conv2d_96/bias/m"
}
node {
  name: "VarIsInitializedOp_100"
  op: "VarIsInitializedOp"
  input: "training/Adam/conv2d_92/bias/m"
}
node {
  name: "VarIsInitializedOp_101"
  op: "VarIsInitializedOp"
  input: "training/Adam/dense_6/kernel/m"
}
node {
  name: "VarIsInitializedOp_102"
  op: "VarIsInitializedOp"
  input: "training/Adam/conv2d_94/bias/v"
}
node {
  name: "init_1"
  op: "NoOp"
  input: "^count/Assign"
  input: "^total/Assign"
  input: "^training/Adam/beta_1/Assign"
  input: "^training/Adam/beta_2/Assign"
  input: "^training/Adam/conv2d_100/bias/m/Assign"
  input: "^training/Adam/conv2d_100/bias/v/Assign"
  input: "^training/Adam/conv2d_100/kernel/m/Assign"
  input: "^training/Adam/conv2d_100/kernel/v/Assign"
  input: "^training/Adam/conv2d_101/bias/m/Assign"
  input: "^training/Adam/conv2d_101/bias/v/Assign"
  input: "^training/Adam/conv2d_101/kernel/m/Assign"
  input: "^training/Adam/conv2d_101/kernel/v/Assign"
  input: "^training/Adam/conv2d_102/bias/m/Assign"
  input: "^training/Adam/conv2d_102/bias/v/Assign"
  input: "^training/Adam/conv2d_102/kernel/m/Assign"
  input: "^training/Adam/conv2d_102/kernel/v/Assign"
  input: "^training/Adam/conv2d_103/bias/m/Assign"
  input: "^training/Adam/conv2d_103/bias/v/Assign"
  input: "^training/Adam/conv2d_103/kernel/m/Assign"
  input: "^training/Adam/conv2d_103/kernel/v/Assign"
  input: "^training/Adam/conv2d_104/bias/m/Assign"
  input: "^training/Adam/conv2d_104/bias/v/Assign"
  input: "^training/Adam/conv2d_104/kernel/m/Assign"
  input: "^training/Adam/conv2d_104/kernel/v/Assign"
  input: "^training/Adam/conv2d_90/bias/m/Assign"
  input: "^training/Adam/conv2d_90/bias/v/Assign"
  input: "^training/Adam/conv2d_90/kernel/m/Assign"
  input: "^training/Adam/conv2d_90/kernel/v/Assign"
  input: "^training/Adam/conv2d_91/bias/m/Assign"
  input: "^training/Adam/conv2d_91/bias/v/Assign"
  input: "^training/Adam/conv2d_91/kernel/m/Assign"
  input: "^training/Adam/conv2d_91/kernel/v/Assign"
  input: "^training/Adam/conv2d_92/bias/m/Assign"
  input: "^training/Adam/conv2d_92/bias/v/Assign"
  input: "^training/Adam/conv2d_92/kernel/m/Assign"
  input: "^training/Adam/conv2d_92/kernel/v/Assign"
  input: "^training/Adam/conv2d_93/bias/m/Assign"
  input: "^training/Adam/conv2d_93/bias/v/Assign"
  input: "^training/Adam/conv2d_93/kernel/m/Assign"
  input: "^training/Adam/conv2d_93/kernel/v/Assign"
  input: "^training/Adam/conv2d_94/bias/m/Assign"
  input: "^training/Adam/conv2d_94/bias/v/Assign"
  input: "^training/Adam/conv2d_94/kernel/m/Assign"
  input: "^training/Adam/conv2d_94/kernel/v/Assign"
  input: "^training/Adam/conv2d_95/bias/m/Assign"
  input: "^training/Adam/conv2d_95/bias/v/Assign"
  input: "^training/Adam/conv2d_95/kernel/m/Assign"
  input: "^training/Adam/conv2d_95/kernel/v/Assign"
  input: "^training/Adam/conv2d_96/bias/m/Assign"
  input: "^training/Adam/conv2d_96/bias/v/Assign"
  input: "^training/Adam/conv2d_96/kernel/m/Assign"
  input: "^training/Adam/conv2d_96/kernel/v/Assign"
  input: "^training/Adam/conv2d_97/bias/m/Assign"
  input: "^training/Adam/conv2d_97/bias/v/Assign"
  input: "^training/Adam/conv2d_97/kernel/m/Assign"
  input: "^training/Adam/conv2d_97/kernel/v/Assign"
  input: "^training/Adam/conv2d_98/bias/m/Assign"
  input: "^training/Adam/conv2d_98/bias/v/Assign"
  input: "^training/Adam/conv2d_98/kernel/m/Assign"
  input: "^training/Adam/conv2d_98/kernel/v/Assign"
  input: "^training/Adam/conv2d_99/bias/m/Assign"
  input: "^training/Adam/conv2d_99/bias/v/Assign"
  input: "^training/Adam/conv2d_99/kernel/m/Assign"
  input: "^training/Adam/conv2d_99/kernel/v/Assign"
  input: "^training/Adam/decay/Assign"
  input: "^training/Adam/dense_6/bias/m/Assign"
  input: "^training/Adam/dense_6/bias/v/Assign"
  input: "^training/Adam/dense_6/kernel/m/Assign"
  input: "^training/Adam/dense_6/kernel/v/Assign"
  input: "^training/Adam/iter/Assign"
  input: "^training/Adam/learning_rate/Assign"
}
versions {
  producer: 134
}
